model.npz (npz, 636774 bytes, 4 tensors)

b2 f8 [10]
000000 00 ce b5 ef 84 76 d3 bf 72 3b df 5d 37 e9 d2 bf
       -0.30410884293743834 -0.29548439185321407
000010 14 8e 3f 2c f6 c4 cb bf 65 40 b5 7d 43 90 bd bf
       -0.216948291402432 -0.11548253840487772
000020 3c 93 6d 6a 13 d0 b0 3f 51 1b c6 d5 3e 42 ab bf
       0.06567498539295696 -0.053239787669602585
000030 8f 01 8e 71 a1 49 ca bf 3e be 87 a6 10 cd d3 bf
       -0.2053720287767757 -0.30939117682189365
000040 e9 2a 11 14 72 76 f3 3f 72 26 93 a4 48 e5 cb 3f
       1.216417387377698 0.2179346850955884

b1 f8 [100]
000000 91 84 05 6e 18 34 aa bf 86 b2 3e eb a1 a1 a5 bf
       -0.05117870657955693 -0.042248783079547755
000010 65 b0 80 ca 76 aa c7 3f d1 8a 15 22 22 5d d7 3f
       0.18488964927508103 0.36505940750627724
000020 7d 87 af 8e aa d3 c4 3f e2 c5 82 0b a1 b9 e2 3e
       0.16270954100678728 8.928829956597382e-06
000030 be dd 08 54 a9 c8 c3 bf 71 72 29 3f c4 c5 ca 3f
       -0.1545612011266097 0.20916035732342977
000040 01 40 15 2c ed 56 c2 3f 65 41 3e 51 ab ef 79 3f
       0.14327778484812373 0.006332081993506077
000050 a6 1f b2 cc dc 79 aa bf 90 83 f8 67 e1 55 d5 3f
       -0.05171098707893344 0.3333667292918614
000060 36 95 f3 69 7d 61 c0 3f ef f6 65 95 ed f4 a4 3f
       0.12797515557682865 0.04093115280828196
000070 d2 b7 94 9c f1 2f d5 3f f8 91 31 1f 7f 3a c0 3f
       0.3310512570486682 0.1267851736366905
000080 3d 37 3c 56 8f 1d c1 3f c8 34 fc 8f c4 22 92 bf
       0.13371459685043333 -0.0177107537156658
000090 16 d5 be 6d ed 58 c6 3f a3 0b 28 99 b3 0a d0 3f
       0.1745888505808259 0.2506531711261976
0000a0 49 68 aa 6b 85 85 53 bf 90 cb 71 13 a7 98 92 3f
       -0.0011915018973582983 0.018160448610113955
0000b0 65 35 11 bf 04 17 c4 3f af f5 30 f2 16 7b d3 3f
       0.1569524701066413 0.30438779498566765
0000c0 04 c4 da 8a 08 da cf 3f 69 2c 68 bd fd 5c c3 3f
       0.24884135036475652 0.1512753653372301
0000d0 e9 ec 7e 51 b6 be d0 3f ea eb c1 0c 7d 98 85 3f
       0.26164014776777705 0.010544754936054408
0000e0 57 78 26 4f 93 fe 6d 3f c5 05 b4 91 8b 49 ca 3f
       0.0036614300854145676 0.2053694211427183
0000f0 c9 f0 8c 66 dc 35 9c bf d2 c0 32 e4 23 c9 a0 bf
       -0.02754921317976836 -0.03278457794783808
000100 31 89 2a 61 b0 09 9f bf fa e0 51 0d 74 d1 9f bf
       -0.030310398035575396 -0.03107243853853079
000110 ed fe 9c 8d 4f 1c d2 bf 79 b5 75 ad d3 1a b1 bf
       -0.28297795133037945 -0.06681559548242956
000120 3c 68 2c 29 58 cc d3 3f 37 d0 0b ad 65 28 c6 3f
       0.3093471910557388 0.17310782384413567
000130 f0 ae 46 5a 52 19 ba bf fe 15 6c 75 29 93 c1 3f
       -0.10194887832647814 0.13730352624422432
000140 24 c0 dc a2 ff ef 95 bf ac b8 60 14 28 85 d1 bf
       -0.021423334422422738 -0.27375223150273587
000150 5e 72 55 d1 1f 87 c0 3f 17 a9 dc 95 62 e2 97 3f
       0.12912366601348685 0.023324528118942114
000160 8e 29 24 b5 54 ea 9c bf ae b3 eb 60 bb 5b a3 bf
       -0.02823765140150552 -0.03780923421968595
000170 eb 68 63 c6 05 d1 ad 3f a4 44 b5 d8 0b 7c b4 3f
       0.05823534056408327 0.08001779595112396
000180 c4 92 e2 f0 8c d6 ce 3f 2d 4d ff 08 92 f4 91 3f
       0.2409225631901305 0.017534524726056922
000190 60 4b 3e ad df 2c ad 3f dd aa b3 5a c3 06 c4 bf
       0.05698298444544636 -0.15645639351654142
0001a0 2f 12 48 ea c2 aa d5 3f aa 67 e5 05 27 8a d2 3f
       0.33854744795852104 0.28968215537826814
0001b0 ab 5d 45 f0 c1 ea c2 3f 5f 74 93 93 55 ea a9 3f
       0.14778923255901807 0.05061595369782234
0001c0 f0 d0 38 1c bf fd bb bf d6 5b 9a e2 4d 70 b1 3f
       -0.10934061469089662 0.06811987669276162
0001d0 ea 87 59 e6 43 db d6 3f be 32 82 39 01 48 b3 3f
       0.35713288779345354 0.07531745580690605
0001e0 6e da 8a cc f4 f6 a2 3f f7 3b a7 63 3b 8c d2 bf
       0.037040376633218894 -0.2898090813804965
0001f0 94 29 81 af 7c f0 98 3f 5f 82 4e d8 62 1e b8 bf
       0.02435488530344683 -0.09421365528988578
000200 0c fd 8d f6 56 33 b4 3f 11 71 2f 12 13 69 a1 3f
       0.07890838164711428 0.03400477978695638
000210 9d c7 8e 42 38 3e bb bf 04 66 77 5b e0 b5 e2 3f
       -0.10641814827866232 0.5847017084553845
000220 71 17 cd cd 91 6f d6 3f 69 db 69 7a ab 24 b5 bf
       0.3505596647049663 -0.08259078730212156
000230 7f be 13 89 7a 23 a5 3f e9 ae ee 56 5d 01 bf 3f
       0.04128630564980273 0.12111457226154311
000240 20 d3 11 87 38 b8 d8 3f eb 16 02 10 c7 64 cc bf
       0.38624394598382317 -0.22182548791550202
000250 e5 f4 1a c8 b1 f1 97 3f 5a 47 5f 82 00 bd c0 bf
       0.023382928694208344 -0.13076788297490333
000260 de 57 e3 10 11 fe c3 3f 45 d5 d0 2f ea 64 c8 3f
       0.1561909992657879 0.19057967505220055
000270 6d ca 0f 92 94 36 c4 3f bf 75 81 67 6a 3a d5 3f
       0.15791566020887463 0.3316904078290825
000280 9d b4 17 35 28 9a ae 3f 23 a7 1b a0 87 ed bb 3f
       0.05976987503150009 0.10909316691291031
000290 59 57 f6 2c ef 9f 85 3f 06 1d 54 d1 cd 42 b4 bf
       0.010558956679954145 -0.07914434776840915
0002a0 98 d1 1f d9 22 26 cd bf d8 8b 1e 28 34 93 bd bf
       -0.227726322190972 -0.11552740077472323
0002b0 6c c0 ec 14 e6 35 b3 3f da 65 9f 11 bb 7d 9f 3f
       0.07504117976054808 0.030753062201119487
0002c0 7b 6c 1f 9f f3 3f c0 bf 2a 0e dc b4 05 8a 9d 3f
       -0.12695164937654 0.028846825755875972
0002d0 ef 0c f2 9e 02 b4 cc 3f 18 30 46 1f e7 00 88 3f
       0.22424347649584983 0.01172047199431607
0002e0 db 9a 57 85 65 99 c8 bf a5 33 1c 38 bd 19 8b 3f
       -0.19218129168367323 0.013232687258573803
0002f0 e3 e5 5a b4 ed 86 ba 3f 8b f1 e4 1a c2 51 94 bf
       0.10362134602737387 -0.019843132869242146
000300 3e de 02 64 0f b8 7f bf cf 2c 26 06 1c 1c bb 3f
       -0.007743892783927784 0.10589766645550756
000310 51 c0 46 90 0a 6e cc bf a5 9a cb 8d be 5f c9 3f
       -0.22210819287056663 0.19823438571548482

w2 f8 [10, 100]
000000 63 02 b5 67 71 29 d1 3f 21 d6 19 a5 7b ac a9 3f
       0.26815447929042174 0.05014406576530584
000010 09 49 41 84 fb 94 71 3f 95 da 5d 1f e5 a6 ca bf
       0.004292471396256888 -0.20821823150227617
000020 e3 60 ea 9c b6 98 b8 bf 46 4a 49 86 db 03 e4 3f
       -0.0960802205175955 0.6254708884028524
000030 5a be e3 89 dc 56 d3 3f da d4 de 01 db 71 47 3f
       0.3021766039446213 0.0007154769298184608
000040 f7 30 fa e8 b0 78 c8 bf ca 70 f9 e3 c2 2a 95 3f
       -0.19118319869847486 0.020670933880283106
000050 ae 5e c8 75 1d 46 c1 bf 93 05 61 68 28 fa a3 bf
       -0.1349522423849882 -0.03901792787702187
000060 b7 d2 ac 79 d7 c6 a0 bf cc 97 71 43 cd 66 d8 bf
       -0.032767041781345645 -0.3812745245580771
000070 e5 8c f4 76 2a f3 d6 bf b3 6c 7a 59 a1 05 ce bf
       -0.35859166733480513 -0.2345468222527863
000080 b5 a7 b0 d4 a9 ef c8 bf f2 82 3f 1e 25 0f bf bf
       -0.19481394658333576 -0.12132484425047688
000090 bf e5 51 cc 61 3d c5 3f 26 1d bb de 08 bd d6 bf
       0.16593573071058462 -0.35528775931421064
0000a0 1e e5 9b 01 4e d5 b1 3f af 3a 57 a5 1d 72 d3 bf
       0.06966102160722129 -0.30384007593685686
0000b0 f4 17 75 a0 9d a6 91 3f a7 b2 3e 11 38 61 d0 bf
       0.017237151068250925 -0.25593377765725694
0000c0 2e b1 fc bd 51 0c cb 3f c2 5a 91 c0 5c 2c dd bf
       0.21131345535958118 -0.45583266072700834
0000d0 76 dd d5 8e 8d 05 bc bf 80 8f 4c 16 bc dc a1 3f
       -0.10945973145668639 0.03488719722943667
0000e0 f8 67 3e cb 59 42 6a bf 0c d2 9a 38 0d f9 9a bf
       -0.0032054666316527723 -0.02634068162906726
0000f0 bf 49 db 50 81 43 7c bf 28 24 f7 44 c7 18 9e bf
       -0.006900315418266022 -0.02939139707976693
000100 fb 92 6e 9f e7 47 e5 3f 9e bb 98 40 50 08 d7 bf
       0.6650274385361564 -0.3598824148966119
000110 87 87 ff 3d e2 63 85 3f 2a d1 d3 a9 bb 2f c2 bf
       0.01044441940024733 -0.14208169739107152
000120 47 85 2b 44 18 62 c7 bf 41 4c 6d 68 56 51 cf 3f
       -0.1826811154233303 0.2446697244546119
000130 97 e7 a0 58 7c 9a b0 bf 65 6b c6 d2 76 1a d3 3f
       -0.06485726512701571 0.2984902437544206
000140 b1 80 de 99 61 3c b2 3f e2 33 2e 7a 41 77 d0 3f
       0.07123384481974672 0.25727879459083003
000150 f8 bd 28 76 65 d9 db bf c6 9a 30 1f 24 9e e0 3f
       -0.43514381922702183 0.5193043336083398
000160 ef 39 10 13 1f 8c a1 3f 27 a6 3f d4 94 27 b0 bf
       0.034272166325639 -0.06310396367884917
000170 19 08 a1 39 1f 7d e1 bf 03 f1 10 bb 8e 78 c9 bf
       -0.5465236783568371 -0.19899162420359326
000180 44 e8 c6 f4 1d 3d b6 bf 42 57 f8 19 de 29 cd bf
       -0.08687007165909316 -0.22784019725866683
000190 62 76 62 44 ff 4f a4 3f 03 ca 95 1f e5 67 d4 3f
       0.03967282972119503 0.3188412483642937
0001a0 0d de 37 3f a0 88 c0 3f 75 1d ef 74 da 97 d3 bf
       0.1291694935496114 -0.30614339274730834
0001b0 e8 ba e7 a8 02 8d aa bf c0 2f 3b ab 51 1d 91 3f
       -0.05185707389670374 0.0167134056817273
0001c0 88 50 23 b2 3b 24 c5 bf 6e d9 3e 3c 60 35 d9 bf
       -0.16516824911252947 -0.3938828075728428
0001d0 67 22 fa d5 9c e0 d1 bf 95 30 5e d0 3d 01 c7 3f
       -0.2793342675800318 0.17972538637366556
0001e0 f5 1f d2 72 c1 8b b5 3f f6 b7 d9 b6 62 6d e1 bf
       0.08416375210992995 -0.5446027346895324
0001f0 db 3a fc d2 66 c0 be bf ee 9b 8b c0 cc 64 c8 3f
       -0.12012331629760402 0.190576166168483
000200 13 ab f6 0c 32 d0 c8 3f 5f d2 ca ab 81 4f b5 bf
       0.19385362275109994 -0.08324442333361891
000210 f2 91 09 60 6c bf a2 3f 6a f4 89 05 51 a0 cd bf
       0.036616694186509494 -0.23145497103169826
000220 74 b2 da c9 87 1e e1 3f 42 3a a1 11 ee ab b4 bf
       0.5349768583742631 -0.0807484429399006
000230 09 ab c8 e0 34 c7 d0 bf 98 73 a7 59 0a 5b d7 3f
       -0.2621586032061463 0.3649316669014353
000240 a1 78 ee 9d 35 ec dd 3f 87 0b e2 71 89 42 d6 3f
       0.4675420801448898 0.34781108971963487
000250 3b a7 20 b0 10 92 b9 3f 88 66 ec c8 bf 04 ca 3f
       0.09988502788533264 0.2032699328490717
000260 c8 0a 7b c6 f9 23 db bf bf 8f ad 1f 11 d2 a0 3f
       -0.42407078154444067 0.032852683178844704
000270 85 dc 1c 43 22 f6 c9 bf e7 ee 15 2a 74 8e c5 3f
       -0.20282390858639956 0.16840984396900824
000280 84 ab 4c 56 9b 82 de 3f 2b f0 f3 3c 06 ff d4 3f
       0.47672160556492593 0.32806545212202093
000290 a2 08 e6 04 86 41 79 bf be 90 38 a6 46 44 c7 3f
       -0.006166003715749964 0.1817711173654341
0002a0 43 27 d5 9f e0 4d c8 bf 37 cf 09 a4 98 6c df 3f
       -0.18987663082435277 0.4910031892716122
0002b0 81 ae e4 5f 9a d8 b1 bf ce ac e9 aa fc d5 bf bf
       -0.06971134987969131 -0.12435893223453151
0002c0 f3 2e 18 7b 8d b2 b6 3f b6 74 97 11 2e 0d c3 3f
       0.08866199736820217 0.1488397203346829
0002d0 fc d9 91 c3 21 d0 c4 bf 20 d0 03 d5 1c 8e 91 bf
       -0.16260168122580854 -0.017143679143330925
0002e0 85 a4 b2 e3 39 16 c0 bf 45 5a 35 9c 8f cc 9f 3f
       -0.1256782876783157 0.031053775700764303
0002f0 16 50 79 9e 8e ab df bf 31 24 83 40 b8 49 b8 bf
       -0.49484601474728274 -0.09487487387663475
000300 99 02 19 fc 7e 5f c0 3f 41 ed c9 c5 4a 2e a7 bf
       0.127914307684496 -0.045275055545938254
000310 b1 8a 63 a0 a1 6f aa 3f 95 84 23 fb 5f 86 c6 bf
       0.051632929638591014 -0.17597579729684712
000320 f1 5f af 87 c3 b3 e3 bf 34 36 19 48 dd 08 a6 3f
       -0.6156938219164642 0.04303637986286582
000330 a5 68 18 32 c0 a5 da 3f ed 6f a7 68 cb fa c8 3f
       0.4163666238033648 0.1951536427503692
000340 4e 35 74 e3 67 63 d9 3f 26 f1 84 f8 8b 7f d0 bf
       0.39669224941538495 -0.25778483647788375
000350 44 07 12 7a 05 cb c3 bf a6 84 93 cb 2d af ac 3f
       -0.15463322124929324 0.05602400884687002
000360 94 7a b3 17 c2 6f e0 3f cd be da f0 f3 e8 85 bf
       0.5136423552429101 -0.010698228633685325
000370 d1 ae 7f af 91 c5 e1 3f c0 cb 4a 26 95 04 90 3f
       0.5553673198423558 0.015642481290978116
000380 cf ec 46 07 f4 d0 67 3f e1 b8 23 fd 88 8e c3 bf
       0.0029072538547701763 -0.15278732643441287
000390 62 90 ab ad cb 09 a7 bf 94 c6 01 37 9b ba d6 bf
       -0.0449966096400949 -0.3551395451714623
0003a0 d9 3a 48 90 8b ed d0 3f ce d3 ee fe a0 8b c8 3f
       0.2644986065869666 0.19176113555809454
0003b0 7a 5d dc 4a 83 47 b2 bf 04 12 7e 1b 7d 1d ce 3f
       -0.07140369966179164 0.23527492372899428
0003c0 60 d4 da df 1a 68 90 bf dc bd 3b 12 e2 91 b9 bf
       -0.016022128975880512 -0.09988224930906803
0003d0 4c 4b 47 e6 39 a2 d5 3f 71 9d f2 26 2b 52 a0 bf
       0.3380264996350675 -0.03187689638553593
0003e0 4a f1 04 9e 5f 6f d1 bf 31 f1 b9 ff 69 d2 d7 bf
       -0.2724226992757123 -0.3722176549270158
0003f0 92 d4 0b a7 14 e6 a9 bf 00 07 58 04 fd 7b d2 bf
       -0.05058350123537382 -0.2888176481647946
000400 2b 23 68 11 b5 2a 94 bf 8f 72 f2 4c 92 a6 e1 3f
       -0.01969416540854067 0.5515834334251667
000410 20 f9 dd db ce a4 71 bf 69 d6 6b 42 e9 66 d3 3f
       -0.004307563822179256 0.3031561993260313
000420 54 5a f5 49 26 5c b2 bf 73 ef b2 00 95 5d c4 3f
       -0.07171859079003556 0.15910589727524957
000430 57 f0 98 e1 bd e6 cb bf c3 a8 15 97 e4 aa d4 3f
       -0.21797917857645885 0.3229304767070397
000440 30 fc 50 09 12 06 c8 bf e3 0e 0b 95 2e 48 c0 3f
       -0.18768525557422455 0.1272028186559658
000450 39 c6 dd 2d 16 5e c4 3f 72 87 4f ab ab 7b b6 bf
       0.15912129630628316 -0.08782456333531544
000460 12 d2 70 df c4 5d c3 3f 88 14 8a 31 85 4f e2 bf
       0.15129910383406348 -0.572207066303819
000470 ee 34 1e b8 71 f3 c2 bf 3a 2e fc 87 c8 de bb bf
       -0.14805432787071687 -0.10886815376232387
000480 97 2c eb 4f 25 c6 b8 3f 8a 0e ab 00 d8 b3 d2 3f
       0.09677346421374221 0.2922267920041369
000490 49 bf 78 2d 62 90 cc bf d8 74 fd 8b e6 44 e2 3f
       -0.2231562349347718 0.5709107145482006
0004a0 25 eb 71 54 be b8 d0 bf df cf cf 1f 88 57 d2 bf
       -0.2612758469255588 -0.28659251314752326
0004b0 fb 9e c8 36 78 25 df 3f c0 c8 e3 c5 8d 86 8c bf
       0.4866619620320162 -0.013928516008011704
0004c0 6e 86 3b 58 74 ca 8b 3f 0f 40 36 24 62 c4 da bf
       0.01356974500908167 -0.4182362893707258
0004d0 cc eb 39 cb e5 e5 c0 3f ad 62 15 86 7c 8b c4 3f
       0.13201591895253129 0.1605067877487917
0004e0 d6 ef c9 5f 1f 3e cf 3f 18 a4 bd 90 b4 f6 b3 3f
       0.24408332993686938 0.07798317464552473
0004f0 a2 66 58 7d a1 a9 9d bf 94 ad c3 02 40 4a c3 bf
       -0.02896740272090049 -0.1507034314630401
000500 e6 b5 a5 86 69 06 e4 3f 02 74 b6 50 9d 73 c2 bf
       0.6257827405767642 -0.1441532749276178
000510 fc 0f 90 e8 ec f1 a4 3f ca 85 34 20 7c 2a a2 bf
       0.04090824450398142 -0.03548038380746339
000520 a8 75 f3 d0 c6 2d a1 3f 1f b6 d5 60 ae 1e a5 bf
       0.03355237293883856 -0.04124970371308855
000530 4b 48 93 21 c9 38 a1 3f 0e 4c 40 e5 6f a8 ca bf
       0.033636365269231826 -0.20826529210953065
000540 c0 1d 63 a0 29 7a ab bf d4 03 cf 71 19 b0 e0 3f
       -0.05366640169955472 0.521496507914089
000550 0b 0d 98 29 8b 51 d3 3f de 64 43 97 2d 6d d8 bf
       0.3018520265761288 -0.3816637017421963
000560 05 51 d7 ad 29 a8 d8 3f fc f4 4e f2 77 10 7b 3f
       0.3852638433138654 0.006607502499659686
000570 08 0e 0e b8 a8 15 c4 bf d0 a4 fb 00 3c 76 d5 bf
       -0.15691098200851195 -0.3353414544677209
000580 ad 89 e5 30 a5 8c b9 3f f7 59 4f dc 9a 61 cc 3f
       0.09980232661977224 0.22172866589853843
000590 fe 12 96 b6 b0 04 7b 3f 97 7a 3c 10 f4 9a cd bf
       0.006596269880337456 -0.2312913016584914
0005a0 dd 8a 20 6f 85 2c d6 bf 49 09 80 b6 45 e6 d9 3f
       -0.346467360041215 0.4046797067859598
0005b0 a8 85 a5 c5 a1 6b 85 bf 71 79 e3 f8 a9 8a b6 bf
       -0.010459197849459326 -0.08805334402447841
0005c0 e3 1c 4f 1d dd f4 65 bf 89 2d d3 ee cd 10 b5 bf
       -0.0026802366869308355 -0.0822876651829373
0005d0 f2 3a 07 a1 f8 92 da 3f 08 9d ba 31 e6 4d b7 3f
       0.4152204105893552 0.09103239740453628
0005e0 de 63 a0 3c 58 97 a3 3f 74 83 cb 0d e3 be da bf
       0.03826404323644515 -0.4179008135525273
0005f0 8b 4b 92 07 27 2c e6 3f 67 e7 7e 59 69 29 d4 bf
       0.6928897045021228 -0.31502755870643856
000600 ea 7f c7 41 bd 7b a3 bf c2 17 ee 40 7d a2 c2 bf
       -0.03805343082399289 -0.14558377905285452
000610 ec 11 b9 68 78 95 d3 3f b3 b4 75 34 e6 b4 b6 3f
       0.3059979460415707 0.08869780331379466
000620 2c ae e7 60 16 9d c3 bf e5 ae 7d 0c 29 48 e1 3f
       -0.15323142749490282 0.5400586360896936
000630 0d 95 dc 56 53 51 d2 3f 2c 0b 57 5e 7e fd ae 3f
       0.2862137172945303 0.060527752891650216
000640 09 95 bb 86 af e6 c8 bf d7 a9 53 58 d5 bb b0 3f
       -0.19453996733424386 0.06536610990921275
000650 1e 75 2f 83 c2 e4 b7 bf 65 c7 9d 83 ef b7 e4 3f
       -0.09333434775131308 0.6474530764228176
000660 b7 d4 6d cf ef 68 cb bf 0b 30 e6 d3 73 f8 d1 bf
       -0.21413991573687038 -0.2807893342330778
000670 45 95 bd e6 c8 0f d4 3f a9 0a 51 f9 40 6b c1 3f
       0.3134634259534617 0.13608562635098068
000680 3c d5 d7 d8 c7 1c e0 bf c2 1b c2 6b ca 40 7b bf
       -0.503513263246226 -0.0066535861079790055
000690 b3 d6 9a 2a 21 47 c2 bf a7 94 14 a9 78 5a ca bf
       -0.14279570179285414 -0.20588596588018968
0006a0 c2 cf fe a9 62 c0 c1 bf 4e c6 81 93 35 8a 8a 3f
       -0.13868363667063305 0.012958925785116506
0006b0 9f 39 83 e9 10 09 c4 bf 28 16 45 d0 6c 8f d1 bf
       -0.1565266742895348 -0.2743789705167239
0006c0 2f 3b be 46 0f 3e e1 bf 57 d5 b9 c5 30 52 d2 3f
       -0.5388256437016475 0.2862665110509019
0006d0 22 9b e5 73 72 e6 de bf 9b 99 d7 c1 41 31 cc 3f
       -0.4828153735929154 0.2202532001967484
0006e0 e7 63 9a 55 ac 1e e2 bf a3 17 3f cb f5 cc b9 3f
       -0.5662442848143855 0.10078369342872277
0006f0 f6 99 20 fd 24 fa d7 bf cf bb 63 57 6a d8 d6 3f
       -0.3746426078745623 0.3569589475072776
000700 16 7e 31 aa 56 6a e3 3f 50 4f 8b d0 37 31 c8 bf
       0.6067307781303863 -0.18900201495000113
000710 6b 1f 9f b2 32 dc e6 3f 93 f5 80 89 61 a4 d8 bf
       0.7143796433165169 -0.3850330202875167
000720 83 4d c6 5a 5e c2 59 bf ed d1 d6 1d 0c 93 d6 bf
       -0.0015722199851538616 -0.35272505678156457
000730 68 04 f0 96 3d 78 72 3f a9 97 f3 e2 d7 8f da 3f
       0.004509201607107639 0.41502949870334277
000740 e1 f0 bf 92 ea ba ce 3f 81 0c ff 1d d1 d1 db 3f
       0.24007923284069135 0.4346812050754992
000750 89 4e e2 c2 5e cc 68 bf 74 70 6e 77 fb a3 cc 3f
       -0.003027138786885268 0.2237543423806333
000760 b0 08 23 16 0e c5 dd bf 2b 60 19 3e 70 9c c2 bf
       -0.4651522842579068 -0.14539912254508755
000770 4e 99 ca 92 d4 5f da bf 36 76 b0 65 aa a3 ba bf
       -0.41209902129266573 -0.10405983908318536
000780 f8 95 ed 20 a1 6d e3 3f f2 1e 34 b1 eb fe a5 3f
       0.6071324961782798 0.042960515385912404
000790 ee 55 19 2a 2f de c1 3f 93 4b 8b 13 eb 5b a2 bf
       0.13959302478421826 -0.0358575307233401
0007a0 6d 5e 42 7b 53 41 9a bf 6a 12 c4 eb e0 91 d2 3f
       -0.025639824293277536 0.2901537229920793
0007b0 ff 8c 11 c7 43 b1 a2 3f 87 5d 9c 90 3b 97 cd bf
       0.036508672762261433 -0.23117775498461077
0007c0 57 62 4e e6 6b 7b bc 3f 43 48 23 09 67 94 ac 3f
       0.11125826237401647 0.05581972109361335
0007d0 b1 b7 79 ff 4d 75 c5 bf 0f d9 bc af 18 d6 bb 3f
       -0.1676423547209516 0.1087356022879684
0007e0 6e 85 56 9b 4c 93 cf 3f 24 49 09 48 70 4f be 3f
       0.24668271622526156 0.11839963682840399
0007f0 f7 da 9e 03 6d b3 cd 3f b8 36 d3 68 ca 66 d6 3f
       0.23203814198287606 0.3500238441164174

w1 f8 [100, 784]
000000 fe c0 35 7d 49 17 90 3f d4 a1 c3 a2 fa 75 77 bf
       0.015713833110056356 -0.0057277479611248135
000010 d1 5c c0 bd 5b 68 50 bf cb b6 a1 ea 7a f1 9d bf
       -0.0010014434728924835 -0.029241486140043443
000020 28 3a b0 12 ee 7e 99 bf a8 19 17 db c5 95 90 3f
       -0.024898261919640202 0.016196338174063435
000030 4b 31 9e d8 72 05 7b bf 71 c3 00 f3 7d 91 61 3f
       -0.006596993081881951 0.0021445712991625056
000040 72 53 4d 61 5b 17 88 bf 63 03 de 9f 97 49 88 3f
       -0.011763299853251506 0.011859116140614473
000050 28 23 4d bb 02 90 9a 3f fd 17 07 e6 f4 4b 8f bf
       0.025939982110943977 -0.015281594533814053
000060 c8 1d 3b e2 8d b9 90 3f 88 c2 3e de 9d 1c 95 bf
       0.016332833226241822 -0.020616976442115603
000070 1f 83 6f 1c 23 8d 73 bf fa 1a d4 82 f2 8c 8c bf
       -0.004773270752566088 -0.013940710656709755
000080 b2 e0 74 cb c8 51 89 3f 5e 5b 98 ae ae d3 96 3f
       0.012363022526742238 0.022291879087869552
000090 3d 30 1f 97 ab c7 2b 3f 96 9d 2d d5 f2 f1 67 bf
       0.00021194429024118554 -0.0029229872538285113
0000a0 a4 ba aa c7 70 82 57 3f b8 1a a1 33 71 32 88 bf
       0.0014349080435455486 -0.011814960849858877
0000b0 13 e6 71 8c 4b ec 9c 3f 1a 6f 4c 5c 7e 68 9b 3f
       0.02824514431674714 0.026765798934419306
0000c0 48 72 48 e5 49 1e 8c bf a8 e7 ba 4a 4a 32 93 3f
       -0.013729646024381328 0.018746529399073758
0000d0 49 ed 9a 12 f5 e0 9b bf dd b3 e5 b4 81 9d 6e bf
       -0.027225331554956687 -0.0037372144062630523
0000e0 fc 2f 86 ff 0f 2a 82 3f 1b 19 d7 4a 22 41 93 bf
       0.008869290338019191 -0.018803153818020762
0000f0 11 43 a1 f8 67 fe 97 bf 12 01 36 53 ca 9d 89 bf
       -0.02343141989723835 -0.012507992424389634
000100 67 6e 1f 3d c8 7c 80 bf 45 d1 89 2c 1b 6e 83 bf
       -0.008050503125495113 -0.009487354561522063
000110 7e 68 76 cf a8 57 98 bf 11 00 89 45 51 04 9b 3f
       -0.023771894133098652 0.026383657330598057
000120 c2 6f 17 28 e1 ca 90 bf e8 54 90 44 59 e8 95 bf
       -0.016398923942560158 -0.021394152459909416
000130 60 74 fc 3f 1f 1e 78 3f 01 47 03 ee 06 95 9d 3f
       0.005888101644612481 0.02888880565371377
000140 e0 3a d1 d9 c5 50 92 bf 3a 8c 92 02 ad 0b 95 3f
       -0.017886248988640996 0.020552352220544835
000150 50 a3 0d ee 99 7e 73 bf 18 05 12 cb c2 76 a0 bf
       -0.004759408272413904 -0.032156073845735544
000160 13 d7 6a 17 65 be 8d bf 85 cf 5a 86 22 46 26 3f
       -0.014523305680409082 0.00016993686147303788
000170 0c 59 8d 5b 30 e7 95 bf 29 11 f0 69 8d ff 75 3f
       -0.0213897281531326 0.005370666883213007
000180 77 42 2e c5 1b c4 9b 3f 3b 91 65 f0 8d de 9d 3f
       0.027115281972842156 0.029169290349629434
000190 ed 74 e0 a2 45 f0 96 bf d0 c9 f9 6b b8 06 94 bf
       -0.022400940004548998 -0.019556886282268426
0001a0 ef b3 17 a2 19 4d 97 bf 70 37 ab c4 75 6e 4a bf
       -0.022755051153513447 -0.0008066248932096908
0001b0 9a f6 f6 35 da b3 61 bf c5 0a 67 63 da c6 8b 3f
       -0.002160955613105764 0.013562875898860747
0001c0 17 43 a9 ff f2 37 9c 3f 19 aa be dd 85 7a 89 bf
       0.027557179312057558 -0.012440725164045085
0001d0 9f 8b d1 ec 3a 53 80 bf 76 ed 71 9c f1 14 9d bf
       -0.0079712489625246 -0.028400206731459453
0001e0 ec 43 74 f0 ce 73 a0 bf 2d f8 65 6c fb a9 9b 3f
       -0.0321335476420542 0.027015617838962825
0001f0 3d cd 72 f6 aa be 77 bf f9 b6 99 65 2d c4 85 3f
       -0.005797069380764794 0.01062808481512033
000200 df 8c ef c5 42 a2 a1 3f 2f d8 4b 4a fc 3c 58 3f
       0.03444107691009334 0.0014793838283231433
000210 93 01 eb 09 be 27 85 3f 21 2b ae ef f4 75 a7 3f
       0.010329708745644683 0.045821813829283416
000220 32 e3 d7 72 ab f1 97 3f d3 4e 8d 9f 5a e2 94 3f
       0.023382834324340247 0.02039472197368648
000230 d8 dc 38 19 25 a6 99 3f a5 6a 1c 18 a6 36 a2 3f
       0.02504785505717852 0.035573187297093946
000240 ed cd 4a 7d f8 e3 2e 3f cd b1 1e fc b0 4c a2 3f
       0.00023567589109561808 0.03574135854373459
000250 2e d7 4c ff d4 31 9d 3f 43 c3 38 8e 3b 50 89 3f
       0.02851040657261377 0.01236006286407732
000260 0f 6f 2b 42 c1 ab 9e 3f bb 5a 2b 18 95 b7 7c 3f
       0.029952068008113616 0.007011015319867193
000270 81 7e 84 43 26 31 a7 3f 6a d3 5b 78 03 e6 a7 3f
       0.04529685568035991 0.04667673916075084
000280 02 70 5e 24 21 27 87 3f a8 a6 77 ed 55 d6 a2 3f
       0.011305102274313587 0.0367915012719327
000290 ce 75 f2 a4 65 dc 87 3f ad 94 e7 1e 6d 28 7b 3f
       0.011650842758451765 0.006630350354020082
0002a0 3c 65 06 d8 08 03 78 bf 35 a5 7c e8 15 f5 a6 bf
       -0.005862268968848835 -0.044838604573963194
0002b0 7f e6 c0 27 0e 23 76 bf bc 99 e9 c4 ab 73 72 3f
       -0.005404525083628208 0.004504843686481793
0002c0 62 b1 38 e2 18 c4 92 3f 35 3c d5 47 f1 00 8a 3f
       0.018326176459752992 0.012697110180537855
0002d0 25 c3 5a 09 2b 45 99 3f 58 98 92 86 55 ba 90 bf
       0.024677917905765363 -0.016335808123266155
0002e0 50 fa 7a 5a 0d 16 83 3f d7 61 0d fb 25 8c 96 3f
       0.009319404910795331 0.02201899857331732
0002f0 cf e8 c2 78 0e 3a 99 3f 79 8d 47 0d a7 14 95 3f
       0.024635530586899542 0.02058659571220065
000300 cf f8 34 37 24 b6 79 3f 6e 5f b3 98 c0 16 92 3f
       0.006277219264403124 0.017664918251142074
000310 7b 38 2d ca 7a 02 a1 3f 2b f7 5f ae d0 f8 8e 3f
       0.03322204320885277 0.015123014756678174
000320 28 40 40 51 5b 67 90 bf 1e e4 21 6c b2 c5 96 bf
       -0.016019274553457447 -0.02223852906215395
000330 c9 21 5b 5c 6a ec 76 bf d6 7e 8c ea 98 b1 7c bf
       -0.005596557113399966 -0.007005307511263678
000340 53 db 8b 90 d8 1a a4 bf 86 68 0c f3 e4 46 9f 3f
       -0.039267318386854065 0.03054387792062887
000350 a3 ad 8b 67 33 e1 8e 3f fb 81 70 42 46 5e 97 3f
       0.015077973935567373 0.022820565991539237
000360 30 ac 13 9d d3 7b a3 3f 03 9f 45 62 12 79 98 bf
       0.03805409710351915 -0.023899352310222898
000370 44 ad db ff 3c 49 8d bf 59 16 2f 10 7e 93 8d 3f
       -0.014299847181482257 0.014441475743193143
000380 39 cb cf a1 83 f5 6f 3f ec 39 3b cc e1 be 99 bf
       0.003901249975109347 -0.025142219629566684
000390 be c1 f5 bc e1 35 59 bf 51 cf 7d 3e b4 c6 65 3f
       -0.0015387253259541013 0.002658226050636183
0003a0 45 73 a3 53 97 34 9e bf f6 64 13 90 86 f2 8b 3f
       -0.029497494201552916 0.013646174690097084
0003b0 00 b5 66 73 50 44 97 bf d7 88 0c 02 6a 5b 49 bf
       -0.022721535724191888 -0.0007738368622976177
0003c0 64 c1 e7 8d 89 6f a0 3f 83 a4 2b 5e 02 31 a4 3f
       0.03210096223108641 0.039436410899562645
0003d0 62 8e 8d de ef 8a a9 3f 18 87 d1 4d 3b 8e b9 3f
       0.049888130108936904 0.09982653283944065
0003e0 9e 52 c0 53 da 59 b3 3f 58 ad 82 f7 b7 23 ad 3f
       0.07558979553898346 0.056913136447600265
0003f0 65 08 8f 04 e4 ca b2 3f ab 9f a2 2a 7f 2e 94 3f
       0.07340836631104393 0.019708621003388476
000400 a5 e1 48 87 cc 2f 80 3f ab 75 45 9a 3e f7 b0 bf
       0.00790366924148673 -0.06627265230550587
000410 4a 67 8d 8c 5e 16 9b bf ef 4f 1a 94 36 d3 af bf
       -0.026452519730219927 -0.06215830381293574
000420 de f7 0a 76 37 be 83 3f 40 7d 25 e3 94 c8 81 3f
       0.009640153207666143 0.008683360273322394
000430 d5 97 34 a3 e9 ec 73 bf 05 21 28 f3 a8 54 96 3f
       -0.00486460938126317 0.021807327118978943
000440 e7 d5 8b 83 fd 5c 6f 3f 26 7b 1a 92 dd da 69 bf
       0.003828520912402256 -0.0031561210206087096
000450 bb b1 2d 30 77 7d 89 bf a5 d3 3f 52 1e c9 a1 bf
       -0.012446337850371294 -0.03473753694553431
000460 db 6b c1 1a 5b 34 84 3f fc c7 49 a7 a4 99 86 3f
       0.009865485910429619 0.011035238604765844
000470 d1 34 c5 dd 26 07 5c bf d1 ff e9 8d 23 30 81 3f
       -0.001710689502107333 0.008392598884938625
000480 cb 9c c1 b7 cd ed 76 bf 14 75 e4 07 cb 6a 46 bf
       -0.005597880921505548 -0.0006841174470399191
000490 b1 bc 94 9e 4e 7b 98 bf 40 42 0d 8a 58 3d 43 bf
       -0.023907879284874315 -0.0005871469803456278
0004a0 a7 86 9c 7b e2 7c 96 3f ec ee e0 f3 32 af b3 3f
       0.02196077231849949 0.07689207510059831
0004b0 19 95 61 63 47 4c b5 3f 86 60 86 2b 4c 14 b3 3f
       0.08319517303751346 0.07452846586818582
0004c0 2a 07 23 68 85 0e 9a 3f 94 9c 4e be 08 4e 88 bf
       0.02544601867771871 -0.011867588336669045
0004d0 e6 36 49 84 9f 54 90 3f 9b 60 8e 9d 41 f9 b2 bf
       0.0159478115550006 -0.07411584946237541
0004e0 7b 1d b6 ba 6a be b1 bf eb a5 86 c9 d8 d4 be bf
       -0.06931178148635368 -0.12043528480594261
0004f0 88 b1 8b b8 e8 5a be bf a7 ae 17 74 6d 0f b2 bf
       -0.1185746622611018 -0.07054790577211155
000500 4d c1 c7 fa 0f 2e ac bf 30 ec a1 82 ea 50 95 bf
       -0.055038928377941866 -0.020816482756782217
000510 3e 47 0b 2c 06 98 a8 bf 91 32 a0 94 84 75 a5 3f
       -0.04803485191008726 0.041912215369028456
000520 1c 3a f0 3c eb 79 87 3f f1 9c 07 79 5f 3f 68 3f
       0.011463010594551064 0.002959906072863221
000530 62 5a f4 a8 ce cb 85 bf 2c 3d b4 7d a6 51 8d 3f
       -0.010642637759287147 0.014315891944106506
000540 7d 0c c5 74 c8 ab 83 3f 6a fe 19 8d 21 8f a4 3f
       0.009604993880776508 0.040154503320988535
000550 b9 14 8a 38 35 35 7e 3f e6 8e 1b a7 cb 00 8a bf
       0.007374961751911596 -0.012696829831333866
000560 12 49 be 2c 9a 8b 9a bf e4 44 cf 0c 90 11 92 bf
       -0.025923165303148706 -0.017645121366347008
000570 c6 82 c5 31 a2 1e 95 bf 7e 12 77 b4 8c c6 a2 3f
       -0.020624670303166302 0.03667106345122749
000580 c9 ee 70 a6 56 ef b8 3f 55 47 42 b9 a5 59 a1 3f
       0.09740201533798677 0.033887080063449794
000590 95 1c 15 07 1b 42 b1 3f 07 dc d8 c8 85 be b3 3f
       0.06741494105254937 0.07712589410299141
0005a0 35 9a f2 f9 ce 6a a1 3f 6d 73 30 9d 8d bd ab bf
       0.034018009196462286 -0.05418055099310135
0005b0 9e 8a 26 1d fa b4 c8 bf c9 68 59 38 08 ff c5 bf
       -0.19302297995917156 -0.1718454623358581
0005c0 32 d0 98 82 17 e9 c5 bf 54 86 a4 3e d0 7e b2 bf
       -0.17117589833071772 -0.07224751977312255
0005d0 55 6c 09 c4 d7 88 c1 bf eb d7 67 ad 5a 6b b9 bf
       -0.13698861190900638 -0.09929434522186369
0005e0 80 2f 24 91 ec 4c b3 bf 2c b3 43 0c 78 18 a5 bf
       -0.07539251845827089 -0.04120230817520673
0005f0 c8 8a af a5 b3 ee 9a bf 05 70 ff 1c e4 a9 af 3f
       -0.026301199901250155 0.06184304098107422
000600 54 1c 73 0e 60 e8 b4 3f 20 66 01 64 ec 6a 57 3f
       0.08167076447271998 0.0014293011190801355
000610 dd 42 a2 e2 2b 7c 8c 3f ae 29 48 b9 d2 f8 81 3f
       0.013908713201347062 0.00877537372527545
000620 d4 10 a6 91 0d 11 8c bf 2f 33 09 ba 2f 02 79 bf
       -0.013704401023240477 -0.0061056007694560285
000630 7c 7e 51 c7 d5 bf 8e 3f 7b 43 6b e9 56 8f aa bf
       0.015014333863461397 -0.05187484359124191
000640 a1 33 2e d8 8a 9b 8b bf b7 93 02 04 86 aa ad bf
       -0.013480267259888214 -0.05794161604834563
000650 3e 1c 55 11 f2 37 a5 bf d3 fc e0 8d 71 18 a0 bf
       -0.041442455879000736 -0.0314364896480527
000660 e9 0a 88 f2 0f 0d ba 3f c5 35 4f cf b1 a0 bd 3f
       0.10176181479622994 0.11573325454010959
000670 33 74 99 9e ec 85 c0 3f 78 01 1a 91 1a 4a a2 3f
       0.1290870451365734 0.035721616947742285
000680 5e 41 e7 19 d5 26 ae bf df fa 63 9a ab cb ba bf
       -0.05889001790240188 -0.10467026252079446
000690 1d a9 49 08 4f 90 cb bf 28 8e 4a 51 6a b9 c4 bf
       -0.21534145264315266 -0.16190842599199695
0006a0 8f 6b 99 3a 98 0b c0 bf 2e 2e b4 f3 a1 7d b7 bf
       -0.125353840458811 -0.09176075172234086
0006b0 ff 57 18 f5 cf 3a a7 bf ac 2c ef b7 3f 0e aa bf
       -0.04537057749637085 -0.05088996048251579
0006c0 ce 95 f5 62 28 b1 b0 bf a1 8a a9 04 b1 a4 a7 3f
       -0.06520321289061501 0.046178371256947466
0006d0 28 7d 11 8c a7 b8 b3 3f d8 a0 b3 06 79 1b b5 3f
       0.07703635377537366 0.08245045102706017
0006e0 d1 f0 a9 a3 88 b7 a0 3f a6 e0 51 8b d9 75 a6 3f
       0.03265025136804101 0.043867872483077705
0006f0 34 4a 71 72 9b 3a 84 3f 7d 4b d9 8d ff 8e 79 bf
       0.009877409391411886 -0.006239889391127626
000700 4b d1 ef a7 9c 60 8a bf fa 9b ea 4c e4 7c 84 3f
       -0.012879585146926905 0.010003837201407951
000710 bf e8 59 4e 84 dd 9f 3f f4 96 61 da 43 60 84 3f
       0.03111845710962124 0.009949236013379693
000720 8c 35 6e 05 bc 49 8d bf a2 33 57 75 c9 de a1 bf
       -0.014300793567396018 -0.03490285451298482
000730 4a df 66 ef 5d da a0 bf 92 9b 33 77 46 61 b2 3f
       -0.03291600749383734 0.0717968026179803
000740 8c 16 26 20 7d 40 ad 3f 97 f8 66 be 69 ca bc 3f
       0.05713263528290921 0.11246357820980034
000750 f9 c4 a2 db 1f 0f b0 3f 1e 31 a1 6e 8a 9a 96 bf
       0.06273078071787443 -0.022073901178644488
000760 8f 57 f1 b1 8e d4 b1 bf 8c 59 54 72 b0 ed b9 bf
       -0.06964961857133133 -0.10128310004470203
000770 a0 3b 12 53 21 1c c5 bf 67 97 ca d2 1e 4d bd bf
       -0.1649209647771075 -0.11445801397584675
000780 06 b6 64 26 45 bb a5 bf 0c b5 80 aa 52 2b 29 3f
       -0.042444382607168804 0.0001920259867359903
000790 de ee ff 3f 34 8c b6 bf 5e 5f de 30 f6 a8 a0 bf
       -0.08807684481137865 -0.03253907534161614
0007a0 be 32 ee f1 d9 2a 5d 3f 75 27 f0 61 b8 7d a7 3f
       0.0017802360887088499 0.04588104434522126
0007b0 45 26 76 ee bd c3 a5 3f a7 88 4f 65 94 ae a4 3f
       0.04250901733309979 0.04039443718626617
0007c0 21 c9 e2 bc 60 e7 ad 3f ff 24 46 e8 95 cd a2 3f
       0.05840589814887865 0.03672474346519471
0007d0 ca 3d 25 92 cc 94 98 3f 8c b4 50 c7 ca e3 94 bf
       0.024005123538982244 -0.020400207915532806
0007e0 38 17 ed 22 d7 2b a2 bf 40 9e 5a f6 5a ef 89 3f
       -0.035490725530094414 0.012663565295340296
0007f0 7f 09 f5 9a fd 5d a2 bf 6b a4 1b a3 c2 72 9b bf
       -0.03587334171835987 -0.026804963307686707
