model.npz (npz, 636774 bytes, 4 tensors)

b2 f8 [10]
0	0xbfcf418cfa0c07c0	-0.24418794831586688
1	0xbfb2a33e871fe4e3	-0.07280340956630797
2	0xbf5377606e8c0e95	-0.001188129588798247
3	0xbfc81edc4165ba96	-0.18844178384047855
4	0x3f94fc4c92f0a99f	0.02049369475222706
5	0x3fc171689b2f934f	0.136273456358277
6	0xbfbaf6261bfa7a24	-0.10531843360011145
7	0xbfb357d510996daf	-0.07555896430260732
8	0x3fd99b265c408108	0.400094595041097
9	0x3fc0b8b5f01a15c3	0.130636923062566

w2 f8 [10, 100]
0	0x3fcd04bb4111b9a8	0.22670689274987166
1	0x3fc63a702ea7af1d	0.1736583926971144
2	0xbfc015bf23777373	-0.1256636546303543
3	0xbfb51c713ca43bfd	-0.08246524553781849
4	0xbfce81226c838ac4	-0.23831587122466236
5	0x3fe37b53bc3b2d13	0.6088045765294815
6	0x3fd18f9435c9f73b	0.2743883633883006
7	0x3f82755574e5a853	0.00901285899154317
8	0xbfbe919d7b66d89f	-0.11940941107499946
9	0x3f9b21df73b6554d	0.02649640220405063
10	0xbfc2a4412724076b	-0.14563764964264733
11	0xbfbc8725db13c917	-0.11143719290319996
12	0xbfbd1f7c571d371f	-0.11376168371972682
13	0xbfd89e71df4fb616	-0.38467070396186054
14	0xbfd6c604b1feb7a8	-0.35583608038256864
15	0xbfcb747768b4e244	-0.21449177372575623
16	0xbfca503c63a3e3b3	-0.20557360520595366
17	0xbfbcd8bbf8422c05	-0.11268210230825566
18	0x3fd078d4cc081078	0.2573749535079126
19	0xbfd4340e629eb749	-0.315677257832125
20	0x3fb91a2f9781e17f	0.09805581520948257
21	0xbfd19d6a9368d692	-0.27523292918645226
22	0xbfa810368b06fb4f	-0.04699869582281357
23	0xbfd89021ffce5e71	-0.3837971685511326
24	0x3f6b1a8e2ca8a539	0.0033085610241597977
25	0xbfe048e2981c0d7e	-0.5088971110239269
26	0xbfc264c0a1383da8	-0.1436997210698625
27	0x3fa5fcaa5597917c	0.042943308780908546
28	0x3f9c5f246a811a02	0.027706688881403714
29	0xbfaf189f3d16b899	-0.06073472614967663
30	0xbf924dbe264c203a	-0.017874690139280093
31	0xbfc9eab5d74e1427	-0.20247529042185983
32	0x3fe41154da42b771	0.6271156561758585
33	0xbfd4af413f83a115	-0.32319670870357814
34	0xbf677c5e4751850e	-0.0028669206026711363
35	0xbfb041e0df50c7b3	-0.06350522472419477
36	0xbfbf023e29cfabfd	-0.12112797280103389
37	0x3fcd3761b473808e	0.22825261412709036
38	0xbfce0a8f68231723	-0.23469727120225867
39	0x3fcf54389badd59b	0.2447577247764173
40	0x3fc9b8635a98beb1	0.20093957828202272
41	0x3fc8ea93a58930c0	0.1946587141304743
42	0xbfdf2128d3029181	-0.486398893417821
43	0x3fdf6a7286ff09aa	0.4908720320055645
44	0x3fb5f36ac3427c02	0.08574549929697642
45	0x3facea3d712275bb	0.05647460943258006
46	0xbfe2ecc67a6f371e	-0.5914032355592302
47	0xbfd029351642bf72	-0.2525150983228662
48	0xbfb3b51ae07bfb7d	-0.07698219280790215
49	0xbfcef38c8e2414c2	-0.24180752697444602
50	0x3fb364ea9b934c32	0.07575861261584363
51	0x3fd4cd106d3c2788	0.32501612346151676
52	0x3fc21ec9b860184c	0.1415645742674222
53	0xbfdbeb6173430b45	-0.43624149566692366
54	0xbf68fe9ad15dec0d	-0.0030510925088811426
55	0xbfa26e431df5a9bc	-0.03599748364179642
56	0xbfc23bb7afedd25c	-0.14244743433268325
57	0xbfd914f90bb33f75	-0.3919050802478446
58	0xbfbe76fbd3f03bec	-0.11900304722097105
59	0x3fd5aff0a114e8e2	0.33886352282173793
60	0x3fc4af7f08a34f5f	0.16160571977399749
61	0xbfe5c137bbb2c49b	-0.6798361459715524
62	0xbfc910e882e946d6	-0.19582849876547098
63	0x3fcfec50fb34c73c	0.24939930215765027
64	0x3fc753a16ca80c9c	0.18223970227709152
65	0xbf89f7074ef57c26	-0.01267820081437605
66	0x3f9469dac0b15f13	0.019935052882231363
67	0xbfb3e1fa68bee91e	-0.07766690308827548
68	0x3fdcf2491588019d	0.4522879324213365
69	0xbfaee070afc39677	-0.060306092696731754
70	0xbf95ac6cadd970d4	-0.021165559874462073
71	0x3fd52b89c7f1dc9f	0.33078236127716737
72	0x3fdd0ded02551285	0.4539749644066336
73	0x3fd07a3ed9059416	0.2574612731316973
74	0x3fb49ecc391247ea	0.08054806130738226
75	0x3fae95e128ef9f13	0.059737240073273544
76	0xbfc02e5eed14e541	-0.1264151246667016
77	0x3fb62077567f1ff4	0.08643289434178297
78	0xbfbe6316ab142e3d	-0.11869947125176679
79	0x3fb5850c9c1ba44c	0.08406142054777027
80	0x3fd8b37e59a13b4b	0.38595541718398313
81	0x3fccdf6731e8d16b	0.22556772171959535
82	0xbf95c71a7d7f9c07	-0.021267331991023066
83	0x3fcf94b027eef4b0	0.24672510099290923
84	0xbfb25f72fe56208b	-0.07176893910775754
85	0x3fdd61a6fb600e0d	0.4590852217517927
86	0xbf9cdd3c7ba1be57	-0.028187699361693266
87	0xbfd08ebbaedc78ab	-0.2587117393139901
88	0xbfa5206663e70ea5	-0.04126281709207306
89	0x3fc3a0488296267b	0.15332895637793684
90	0xbfccc6bd812f9aec	-0.22481507118137445
91	0xbfa49d64f8b0ab44	-0.040263324124984595
92	0xbfc3432307a659b0	-0.1504863536217278
93	0xbf628ac437ee47c6	-0.0022634346382312846
94	0xbfdd179ca32a4cb3	-0.4545661538515546
95	0xbfb22f8d27fcb36d	-0.07103807665107605
96	0x3fbb0e6ae721fe97	0.10568874495401769
97	0xbfb54886dde898f4	-0.08313792150201832
98	0x3fbd6e4eec92b424	0.1149644210406256
99	0xbfc64ef574f1feea	-0.174284631826587
100	0xbfe1026bf1bb8734	-0.5315456124628555
101	0x3f9edb3ead4211ce	0.030133227658113708
102	0x3fd739d4f3fd39f8	0.3629047758776376
103	0x3fcf28f735f47eb0	0.24343767294430085
104	0x3fd5d6a8c12abc39	0.3412267576595159
105	0xbfe2118b40090fa3	-0.5646415949527078
106	0xbfc56dfb010d8870	-0.16741883803757984
107	0x3fb5d544542e100c	0.08528544478582506
108	0x3fd0140f1d11420a	0.2512243064748253
109	0xbf632e6aff845624	-0.002341469746293583
110	0x3fdc23fc9653bacd	0.4396964519536766
111	0x3f94f56aa6c9ca2e	0.020467440061518065
112	0x3fb54421560ce4ec	0.08307083464469017
113	0xbfa9f0ccfdd9065d	-0.05066528891303499
114	0xbfc3bbe3817815f4	-0.1541714079068438
115	0xbfd3ecee90906cce	-0.3113361751326921
116	0x3fd8d061d1b3fa38	0.387718634403345
117	0x3fd77e5f3b34e914	0.3670881345930337
118	0xbfa7773522c1e195	-0.04583135651859319
119	0x3fcf19909097913a	0.24296767292174498
120	0x3faf093b6b9b6390	0.06061731041490426
121	0xbfc3f1a6f32e1390	-0.15581213830969576
122	0x3fd6bfe9b662a7d1	0.355463436232296
123	0x3fc9f659eea64e04	0.20283054497541297
124	0xbfc0d9615ad50824	-0.13163392005122987
125	0xbfca37b75ac7bb75	-0.2048253243696895
126	0xbfb9fcbba5c53223	-0.10151264950872778
127	0xbfd4f31f74ae5946	-0.32733904261239777
128	0xbfaae7697735806e	-0.0525467832583225
129	0x3fe3dfab89fd4878	0.6210534758668151
130	0xbf7756779477967a	-0.005697695836237688
131	0x3fcf863ba1f944d5	0.2462839642417182
132	0xbfb116dfd6e8e00c	-0.0667552852327164
133	0x3fcbf1cf5b38a534	0.2183169551292764
134	0xbfc30a8a4e21e044	-0.14875916304640857
135	0x3fd5c7ccbf036af3	0.34031981137893225
136	0xbfc8bbf63e5c18fe	-0.1932361416331289
137	0x3fc45ad8f1478f70	0.15902244359233064
138	0x3fd9fd414ffd3a4c	0.4060824662346121
139	0xbf9654f432819dcb	-0.021808448393498197
140	0x3fbce99b8928c496	0.11293956850637907
141	0xbfe122df543eb28f	-0.5355068822296561
142	0xbfc24c0f64bdac3d	-0.14294617098798482
143	0xbfceeecbb354a29e	-0.2416624665868498
144	0x3fc13fd588a238cb	0.1347605626255642
145	0x3fc936c867b17388	0.19698433936255477
146	0xbfce48e7adf9de30	-0.23659988398479603
147	0x3fe311cbfd14992a	0.5959224646547103
148	0xbfc25c013282f0a0	-0.14343275991803228
149	0xbfd0935ab6c390ec	-0.25899379585304305
150	0x3fd9251016b6fa62	0.39288713663328256
151	0x3f9d2a9de68cfeb5	0.028482882687284234
152	0xbfc7a4bed44622c8	-0.18471513142528395
153	0xbfdcd41acff92b59	-0.4504458456983023
154	0x3fa59780dd1c6e3b	0.04217150401219923
155	0x3fc3ba643d52fbaf	0.15412571901648905
156	0x3f34ee868615ad6a	0.0003193930079620962
157	0x3f905c26431429b0	0.015976522297060647
158	0xbfc6c2d75d57040a	-0.17782108361828391
159	0xbfc58aeb61df9b99	-0.16830198554017953
160	0x3fdb2496b3fdc5a3	0.4241081960418233
161	0xbfb43b271d1029c5	-0.07902759990262272
162	0xbf9fd300d817b9a5	-0.031078351201296112
163	0x3f919d5291e279ba	0.01720170035752642
164	0xbfb45f1fd56b9f81	-0.07957648239573524
165	0x3fae026b4f9fc4a8	0.05861220690702257
166	0x3face4a0856eec4d	0.0564317858583868
167	0xbfd10e65ca5ea89b	-0.26650376093551537
168	0xbf81d6538e13abc6	-0.008709576390591677
169	0x3fdf6d277fd0bf98	0.49103724939322424
170	0x3fd3b91997d6a792	0.3081726057813451
171	0xbfd564572c38d136	-0.334249299226275
172	0x3fd85238c3e75e6f	0.3800184167025468
173	0x3fb11b49d998f177	0.06682263910710683
174	0xbfbe039baf588d18	-0.11724255591302712
175	0xbfd1d95c7a024d8a	-0.2788916770452593
176	0x3fba52e1e05d3c61	0.10282718398706116
177	0x3fc53289121217af	0.16560471899373172
178	0x3f7ae5ae6fccd8c8	0.0065666974958757465
179	0xbfb726bfb9a00da8	-0.09043501169076384
180	0xbfd81ddd8d86dc54	-0.3768228418443347
181	0x3fde7eae011b67fb	0.4764819155512893
182	0xbf75ab2bc5217d63	-0.005290194489219277
183	0xbf998c31af6f5a40	-0.024948860485745294
184	0x3f6a9438d945de0a	0.003244505913410971
185	0xbfa7770f4438160c	-0.045830227925801464
186	0x3fd80ea086c5dc10	0.37589276467719035
187	0x3fc5d85aa76257db	0.17066510365537976
188	0x3f806564b7c038d7	0.008005892617827843
189	0xbfd9970093eb132f	-0.3998414463533661
190	0x3fe27f1f53815e52	0.578017867180231
191	0xbfd1399b579de7d0	-0.26914104038553166
192	0x3fb6248a8e46f35e	0.08649507497370965
193	0xbfa5ef521431395c	-0.04284149643409549
194	0x3fd963f614c4d0f2	0.3967261507816736
195	0x3fba28aa0f95fcca	0.10218298798098427
196	0xbfc02b02dcf671ff	-0.1263125971717187
197	0x3fe10c62557c6e25	0.5327617330216908
198	0x3fc25a4d60e7efc8	0.1433808062719193
199	0x3f820e3bda33ebb4	0.008816211315652335
200	0xbfc1c4ff9359ecf6	-0.13882441229711845
201	0x3fc41d7a0e8deb25	0.15714956007635653
202	0xbfc1a24e84aa0d2c	-0.13776570775744668
203	0x3fe092e7e6b260f7	0.5179328447148056
204	0xbfc9bca61bb4c1aa	-0.20106960633121435
205	0xbfb3c748fd16d95f	-0.07725959948479531
206	0x3fd99a0785961708	0.40002620740448025
207	0x3fce7ab533ec3aea	0.23811974559108445
208	0xbfd7c368748687cd	-0.3713017595238142
209	0x3f9582fcc3e93e9f	0.021007489640679663
210	0xbfb23a8e1e2ba317	-0.0712059806497901
211	0xbfd1b365bdbd5aa6	-0.27657454995407205
212	0xbfc6b4b93d71e0ce	-0.17739024639354856
213	0x3facd2c0597b333b	0.05629540531444951
214	0xbfc87407589b3691	-0.1910409147880512
215	0xbfd2bef8cd671116	-0.2929059987911996
216	0xbfd97880333a49f1	-0.39797978403762985
217	0x3fd1ee07dd2655a4	0.2801532420793029
218	0xbfe3e14f7aa37e28	-0.6212537188802729
219	0x3fd72cfd8ffb39bd	0.36212100086859406
220	0xbfe0df49b7574398	-0.5272568302990406
221	0x3fc491d4b4044201	0.16070040502428642
222	0xbfcbad1fe42b00fd	-0.21622084275259815
223	0x3fd6b358cf42e937	0.35469646683090467
224	0x3fe18e24dfbece61	0.5486015672708612
225	0xbfd39a153aad9bb1	-0.3062794755009533
226	0x3fe89b4e96a7c082	0.7689583723531686
227	0xbfd58d864e1104bf	-0.3367629778259235
228	0x3f7be313ffcc1773	0.006808355447679537
229	0xbfd570422ab01671	-0.334976712882372
230	0x3f83461d53b44844	0.009411076657247837
231	0x3fd2e9f9ce054967	0.29553074950412966
232	0x3fbf20a70725989c	0.12159198688968548
233	0x3fdf95c1582b5700	0.4935153351810726
234	0xbf94937aa5b7318f	-0.020093838085629975
235	0x3f93034af8802d1d	0.018567248742369025
236	0xbfe2a02f7a7c28a7	-0.5820538894925179
237	0xbf92c9de8fd05d55	-0.01834819557924779
238	0xbfe0200aed011034	-0.5039114598262189
239	0xbf7bc575fe8911ec	-0.006780110278274947
240	0x3fd59a7c9233435c	0.33755411412589864
241	0xbfb7bdb57d5f2443	-0.09273847876387813
242	0x3fd199bb8a25579b	0.27500809183890745
243	0xbfe2349fbf327056	-0.5689238294903685
244	0xbfb03e397def9ab1	-0.06344947170837646
245	0x3fd248314b6e6d24	0.2856562840112977
246	0x3fa227531a32055e	0.0354562730290222
247	0xbfcc75cbac4c05bb	-0.22234483635842914
248	0x3fd2ec85d45d6f90	0.29568620432632375
249	0x3fbf07f540ad57f2	0.12121517972022369
250	0xbf69b71b2e50b125	-0.003139069640857655
251	0x3fc439a741929377	0.1580094404390839
252	0x3fafdd30b632ccce	0.062234422913570606
253	0x3fc65b52176f5eee	0.1746618856839101
254	0x3fc1461abe656e20	0.13495191857042332
255	0x3fb9fb4a5518273c	0.10149063661097285

b1 f8 [100]
0	0x3fae3e7b168daf4c	0.05907044077215903
1	0x3f79dbdd61c63cc1	0.006313195012253193
2	0xbfa518848b487ebe	-0.04120268059000186
3	0x3fc49c4c872ec044	0.1610198650428193
4	0x3fc19a92a73f8a79	0.13752968946853963
5	0xbf81e86064e6f290	-0.008744004325188542
6	0xbf7db7cd938c9bd4	-0.0072553663565377464
7	0x3fc29cac11c8cf92	0.14540625446681738
8	0x3fb5b84668223bd1	0.08484306375815655
9	0x3f4a319d73e2fbaa	0.0007993716060566887
10	0x3fa015822edaa879	0.031414097041605644
11	0x3fcc331824df173f	0.22030927467693037
12	0x3fc4e98b98f53856	0.16337723702094092
13	0x3fc200b254d01366	0.1406462587475758
14	0x3fcac46d6db450bb	0.20911949021013307
15	0x3fb4a76045ecaeea	0.08067895609991252
16	0x3fc48dd56c3d7102	0.16057842049747967
17	0xbfa17c370893384f	-0.03415081004787678
18	0x3fbe516799b9a2ce	0.11842963698439776
19	0x3fc78230c0917b4c	0.18366059687374514
20	0x3fad622c8cc1f99c	0.05738963335260225
21	0xbf7714317854ac21	-0.0056344921515956445
22	0x3fc0606f7289d86e	0.12794297306726626
23	0x3fcb110409d0397d	0.21145678023499306
24	0x3fc70a142d811213	0.179995081156577
25	0x3fbe9e00fc200fae	0.11959844737435674
26	0x3fc1b50a52206fff	0.1383374119767495
27	0x3fc3b52c11cfa8e0	0.15396643514333785
28	0x3f99949b612609a6	0.024980953030089424
29	0x3fbfedbab9353e9f	0.12472121259383549
30	0xbf999aea1ca67dda	-0.025005014418295925
31	0xbfb1a47711067b62	-0.06891578832299453
32	0xbf96e39df2a0b8e8	-0.022352664884402268
33	0xbfa7001dc838f0bb	-0.04492276257630708
34	0xbfbe14ff38ae68a9	-0.11750788816280767
35	0xbf954000e0d07952	-0.020751966210917523
36	0x3fcef0caa9f65325	0.24172337817130898
37	0x3fc29df1535a7fef	0.14544502801891165
38	0xbfbe1d3b64dea9e4	-0.11763354504243001
39	0x3fbf679984b7382c	0.12267455568437019
40	0x3f9df6fbfff68e4e	0.029262483117817255
41	0xbfbc33dff2036b51	-0.11016654642609792
42	0x3fc994acdadca846	0.1998497074758367
43	0x3f95f1b27304d80a	0.02142981364269051
44	0xbf9d91aecd6d70fc	-0.028876048363017923
45	0xbfb070132fea65d8	-0.06421012801947457
46	0x3fb5bdd768e2e2b2	0.08492800055217734
47	0x3fa6e8a9c8251d18	0.04474382942367522
48	0x3fc5f471292cbfac	0.17152227888572946
49	0x3f7cc2b5a4af3dd4	0.0070216269914022585
50	0x3fb39adb40d67230	0.07658167202902955
51	0xbfa62f3c4338dc38	-0.04332912750799561
52	0x3fc79da7b9684851	0.18449875405400687
53	0x3fcefa1a928330f0	0.2420075621979616
54	0x3fad47b5f7746a1a	0.05718773503959458
55	0x3f994545fe74c6c6	0.024678319602748265
56	0x3fa7c06e0260d732	0.0463899972823313
57	0x3fc93bf395e717cf	0.19714207477062337
58	0x3fcf567c01bcacbe	0.244826794479513
59	0xbf76105cb847759c	-0.005386697947384358
60	0x3f9514bf411e4bc2	0.02058695635748698
61	0xbfce5f8339b0c165	-0.23728981320301581
62	0xbfab5fc8f9bebe32	-0.053465157019101275
63	0xbfb8270e4d20bbb9	-0.09434594519619467
64	0x3fbd950a1301b489	0.11555541004209337
65	0xbf98c283e04eb82f	-0.024179516378062423
66	0xbf91fbfedef97224	-0.017562849387433258
67	0x3fd578ba581c8148	0.33549364666580006
68	0x3fc9ce0b38e5186c	0.20160045888968925
69	0xbf90d406938f1df1	-0.016433813816346846
70	0xbfb0169fe499afed	-0.06284522372305874
71	0x3fc1f1eaeb9b54e4	0.14019524101482894
72	0x3fcc548056aff4f6	0.2213287757184969
73	0xbfce8b97c1f15f86	-0.2386350342737808
74	0x3f9a9c3042ceb101	0.025986436917876613
75	0xbf906a917760d3f8	-0.016031525527257146
76	0x3fbbdcac911b6002	0.10883596937799214
77	0x3fc03e26d4d7fc3f	0.12689671890982088
78	0x3faeb23ddea78bd8	0.059953626088620815
79	0x3fd002d1661857d0	0.2501719948789942
80	0x3f69157a78698cc0	0.0030619995116452914
81	0x3fb000571bcf24e9	0.06250519207891937
82	0xbf19ed8c85df29ec	-9.890718635500285e-05
83	0xbf6d06a72d3e7862	-0.003543211476382744
84	0xbfa678a47347064c	-0.04388917834468184
85	0xbfb83ad78c7e49fe	-0.09464785747540103
86	0x3fb2690e1e99f27e	0.07191551444152286
87	0x3fa4d3ca1d0a2da5	0.04067832569588895
88	0xbf8a5421ffa0dc19	-0.012855783094080352
89	0x3faab1ec2dd17ddf	0.05213869151407002
90	0x3fc665294ff8a8d3	0.17496220021104722
91	0x3fb3bf58179d468f	0.07713842941782388
92	0xbfc191ca5bb9638a	-0.1372616718170117
93	0x3f723f9f15211f8c	0.004455205360564107
94	0x3fb966c43e438737	0.09922434349166741
95	0xbf98d6ca9cd24974	-0.02425686437761372
96	0x3fabe1a93184afca	0.054456031126704454
97	0x3fb0c6307f6ac9e0	0.0655241309239396
98	0xbfc269fe4c239b66	-0.14385966031769754
99	0x3fbee1d291392c23	0.12063327832690666

w1 f8 [100, 784]
0	0x3fa25d8dce41e2e9	0.03587000983038086
1	0xbf8ac6eeb1c1c7a2	-0.013074745940887148
2	0xbf62ba15b321c6d3	-0.0022859977553303184
3	0xbfb11680ccaf8b26	-0.06674962041101348
4	0xbfad19853c604a10	-0.05683533060086543
5	0x3fa2edeb2e798448	0.03697142546003157
6	0xbf8ed73d4c18553d	-0.015058974156128552
7	0x3f740d37f865b8e8	0.004895418771736916
8	0xbf9b7f1f0d339b61	-0.026852116757165038
9	0x3f9bb8751bee0814	0.027070836858463634
10	0x3fae5133943a6944	0.05921326813150299
11	0xbfa1dc3a94c355d9	-0.034883337649869346
12	0x3fa299fd318e8ba4	0.03633109312001828
13	0xbfa9037bbd6c4f39	-0.0488547009209967
14	0xbf85a635c0f34c55	-0.01057092661941376
15	0xbfa049436e15c429	-0.03180895537196477
16	0x3f9ce5fe520c9f0a	0.028221105344669296
17	0x3faa0db1e166e946	0.05088573338021489
18	0x3f3fb4ea22f85520	0.0004838058111727595
19	0xbf7b546cd89cb07f	-0.0066723110010508116
20	0x3f6ad527c50e9871	0.003275468516636564
21	0xbf9b9e08fa73969a	-0.026970043455455263
22	0x3fb081738057907a	0.06447526820517338
23	0x3faf4848d927e40c	0.06109836245372699
24	0xbfa00be367b8298c	-0.03134070054155122
25	0x3fa5e8ee8d68cebc	0.04279275394619961
26	0xbfafd1c6a7904154	-0.06214733882382242
27	0xbf8178acaa8d0550	-0.008530949549483552
28	0x3f94bb5aed87dc4a	0.02024595331928606
29	0xbfa5f9dfb02552d2	-0.04292201066224312
30	0xbfab62a4c611f186	-0.05348696630332754
31	0xbf9d3cbe330686bd	-0.02855202852663895
32	0xbf92d15bb11d9358	-0.01837676304366495
33	0xbf962fb352b044b3	-0.021666337892445053
34	0xbfad918a88c51a64	-0.05775101584963663
35	0x3fab5f36ac15c74a	0.05346079683921674
36	0xbfa57f87166a9c04	-0.04198858402860853
37	0xbfa9fb5e2171cbef	-0.05074590833910252
38	0x3f8702cd482152d0	0.011235812915552229
39	0x3faf772bbc350d90	0.061456076359287626
40	0xbfa9a2fd3f468efc	-0.05007163426787817
41	0x3fa433980a64643b	0.03945613028390268
42	0xbf8d453f11313fd5	-0.014292233192605789
43	0xbfb41ea9c9676ff1	-0.07859288374987707
44	0xbfa36b5ab3984741	-0.03792842333144942
45	0xbf724e5db0ab704f	-0.004469266869559687
46	0xbfab1a2b87e07f0b	-0.0529340365758327
47	0x3f83b08be313b272	0.009614079348886782
48	0x3fae4bbbcab02127	0.05917155122011968
49	0x3faf06c83094e725	0.06059861748731369
50	0xbfac0678ecd38dca	-0.054736880216093534
51	0xbfa70a407e7bb65c	-0.04500009101853372
52	0xbfaa9846730591b4	-0.051943017521611706
53	0xbf5e2ae88dcb2c50	-0.0018412848505018516
54	0xbf74346f987126eb	-0.004932819289999317
55	0x3f9fb3fb5d13988a	0.030960013919774577
56	0x3fb01a883b86b285	0.06290484860682895
57	0xbf9d147d8e3272a8	-0.0283984773674201
58	0xbf92a2a31a8e81b3	-0.01819853639210729
59	0xbfb09ac06425a9b8	-0.0648613209247405
60	0xbfb2d0fa7e80daba	-0.07350125874004734
61	0x3faf73e8d2b51a22	0.06143119403946097
62	0xbf92f373449116d8	-0.018506814060194582
63	0x3f899cbbbd96c904	0.012505976413056626
64	0x3fae95d3c8d8d6d2	0.059736841456851444
65	0xbf8ad9be6b0caf93	-0.0131106258791858
66	0x3f94aa8d61f11cf3	0.02018185529985046
67	0x3fb7f24ccb61a7ca	0.09354095425956568
68	0x3fa27ebadcc6b146	0.03612312264462729
69	0x3fa5c695b124ed36	0.042530706285527506
70	0x3f9bbd8e87ed48a8	0.027090289160078967
71	0x3fb23a1712b3550e	0.07119888502650815
72	0xbf81986e568a40d1	-0.008591520324700149
73	0x3fb722de8eff282e	0.09037581435328043
74	0x3fae346b077594df	0.058993668232497624
75	0x3f958eab5dfdb163	0.021052053081278454
76	0x3fb16ece1b916ae7	0.06809700177238263
77	0x3f81a1a69384f638	0.008609105469640985
78	0x3fb65c986b382987	0.08735039346371397
79	0x3fb9e1cd8caba0f8	0.10110172924362704
80	0x3f9b5d6384659cd1	0.02672343726717658
81	0x3fb5ab91929ec8d5	0.08464917974086757
82	0x3f9b3bd3cbad21de	0.026595410639204668
83	0x3f8eff2945509669	0.015135118892497705
84	0xbf8b67ed2135156d	-0.013381817413242481
85	0xbfba33d1d5896eef	-0.10235320533086754
86	0xbf88418b08b61c9c	-0.011843763545370138
87	0x3f8504d6f9341b52	0.010263137321556624
88	0x3fa4b0f64938da48	0.04041261333297946
89	0x3f9daf1291a10394	0.028988161219107036
90	0x3fa8b8f56f6b5984	0.048286123133652686
91	0xbfa684cf85b8a986	-0.0439820147260717
92	0x3f58ce66876e1de7	0.0015140534648895255
93	0x3f87c3bcf9f2637b	0.011603809716960836
94	0x3fa26d700b03aa7b	0.03599119314624929
95	0x3f9936e7cb25eed9	0.02462351014535966
96	0x3f7097dfebf029a6	0.004051088994865648
97	0xbf7ac45968132046	-0.006534909481338563
98	0x3fb092086da522c1	0.06472828556901346
99	0x3fa7b548fdabfad1	0.04630497070865192
100	0x3f9d345af856da08	0.02852003231756764
101	0x3fb050212e67fd16	0.06372268088306429
102	0x3fa49d78b6754f24	0.04026391246102737
103	0x3f974b181f8cf8d0	0.02274739925928132
104	0xbfb37674d3731889	-0.07602625048011381
105	0x3faca9e40942bfa6	0.0559836636833773
106	0x3f979df108182217	0.023063436621699376
107	0x3fa30973dbd9bd4a	0.037181492411827735
108	0x3fb4025254d08fec	0.07816042490645686
109	0xbfabbc98028e4f6f	-0.0541732314224238
110	0xbfa13fce8cc091df	-0.03368993251959628
111	0x3fa0e0dddb0acce5	0.0329655961881146
112	0x3f823cfdbf9a86e1	0.00890539399125906
113	0xbfad62832056179d	-0.057392213532735804
114	0xbf5e47518ece225e	-0.0018480583632670892
115	0x3f7c18bc854aa770	0.006859527977818178
116	0xbfb19df2c5ca0850	-0.0688163502582324
117	0x3fa9677ee7d1c7a9	0.049617734716675806
118	0xbf9d43dce94f0534	-0.028579189052611656
119	0x3f7066001a17cd14	0.0040035251599761686
120	0x3fb20feef8f6c8bd	0.07055562570784253
121	0x3f99f7dce100ddaa	0.025359584076992604
122	0x3f9b81e9e4d84ae9	0.026862768738349727
123	0x3fbc2322e8642868	0.10991113828291221
124	0x3f9527ecf90dc851	0.020660116864242465
125	0xbf8a2bc5ef70b032	-0.012778803224215183
126	0x3fae87ab6ac4f57d	0.059628826888437715
127	0x3f93f9cd6c41387b	0.019507608158442196
128	0x3f9d70a85fa9dc51	0.028750067557180185
129	0xbfa03b840a94dd1c	-0.03170406941574752
130	0x3fad313fcb9f51af	0.057016366583101934
131	0xbfba333d795ca3b5	-0.1023443623822818
132	0x3fa832f8e619e640	0.04726388748981636
133	0x3fb137ecd6dcb2d6	0.06725960012108642
134	0x3f91c1207a17aed4	0.017338283016143333
135	0x3f9a11c5e28cac57	0.025458423569187563
136	0xbfa4dfc1fd77a9d1	-0.04076963633618259
137	0xbf93e65d2943fbd9	-0.019433456081056597
138	0xbfa0caf23ad5d350	-0.03279835670665554
139	0xbfb57d3f01750c83	-0.08394235406471932
140	0x3f970f79b773d5b0	0.022519971677828543
141	0x3f99cb73a636e2bc	0.025190169353410438
142	0xbf6dc15a0cb9d209	-0.00363223636468946
143	0x3f99423895310fb8	0.024666675668654853
144	0x3f5a72b67c0902d5	0.0016142637324635851
145	0x3fa86120aff9e412	0.0476160254301662
146	0xbf9e5ed2aa3d2b7e	-0.029658595696030236
147	0xbfa308b12846fbd4	-0.037175689856205146
148	0xbf8fa114f2864692	-0.015443957949887097
149	0x3facaf65dcb80cea	0.05602567977259716
150	0x3f9f5515ac82ec3d	0.030598009733449272
151	0x3f9c5ceaffade04a	0.027698203902645248
152	0xbfa5c250eb670041	-0.04249813912929357
153	0xbfa1d0ecb21ad944	-0.034797093144720154
154	0x3f9b76517e17a31c	0.02681853611094019
155	0xbfb65b8e0f58c948	-0.08733451723745589
156	0xbfb4e412509a9a07	-0.08160509555691685
157	0xbfc1abfd1a8d9c7a	-0.13806117817441416
158	0xbfc12ce5314f117b	-0.13418259532603458
159	0xbfb5cf85b4a090a2	-0.08519778880924148
160	0xbfb162617230361c	-0.06790741956520957
161	0xbf8c4f1039400397	-0.013822676417477626
162	0xbfb8e8a93967e839	-0.0973001256133167
163	0x3fae4a6919db2b37	0.05916145744921269
164	0xbf9aa3fb7d0c8038	-0.02601616812455651
165	0xbf9181e433cf09a1	-0.017097058927683432
166	0xbfa53a6dab7000de	-0.041461398293906035
167	0x3f9a631817e2083b	0.02576863904733549
168	0x3f9673990cd062f1	0.021925345809083067
169	0x3fb77714f31260be	0.09166079458589402
170	0x3f90fd01c9850ced	0.01659014503935634
171	0xbf8ab5a09151af70	-0.01304173892477653
172	0xbfa07a0f1578b433	-0.032181235667259854
173	0xbf6e4ca65c7e032c	-0.003698658871087798
174	0xbf84e50c5260143a	-0.010202499641318242
175	0x3f9f784a5a52b854	0.030732309115301185
176	0x3fb32c1351315f5d	0.07489128811118691
177	0xbf996e1cf07c8833	-0.024834110429886102
178	0x3fb19d4848f51933	0.0688061884039584
179	0x3fa4f15df4b91f6f	0.04090398418753593
180	0x3f9450482fc8d032	0.01983750144627567
181	0xbf965b0e04c77c5b	-0.021831721345617044
182	0xbfc8a2a1fddc406b	-0.19246315856480875
183	0xbfc3202a2154072e	-0.14941908480982974
184	0xbfc77c7c9c5f0088	-0.18348653445537288
185	0xbfadff9e4f58062c	-0.05859083860924516
186	0xbfc741098e157b64	-0.18167228162470928
187	0xbfbb1c2ab1f6c54f	-0.10589854092429117
188	0xbfa86fdb5d63cbba	-0.047728400373578464
189	0xbfa2397d9be60d0d	-0.03559486892756967
190	0xbfb19b68f6f6724f	-0.06877761868822428
191	0x3fb8b1aa56c88842	0.0964609586594927
192	0x3fc22d044433b473	0.14199879961180137
193	0xbf995e5f6933c5c9	-0.024774065776858287
194	0x3f99cb89facf1e0e	0.025190502103013705
195	0x3f90b641598326b7	0.01632024868812351
196	0xbfa00455c4fde198	-0.03128307370838285
197	0xbf8bdb8ab4fc0848	-0.013602336548050556
198	0x3fa0d6edc4921371	0.03288977646392411
199	0xbfb73ddfc9e1b3bc	-0.09078787497283164
200	0x3f6fe689fff12d10	0.00389410927849599
201	0xbfb6e30bd2cb8740	-0.08940194984782313
202	0xbf7ab292cc748808	-0.006517957145918636
203	0xbfbbf9635b4c7706	-0.10927411059352829
204	0x3fae156084b67e87	0.058756843757916725
205	0x3fb7201eda7f8e0b	0.09033387026243404
206	0x3fba3c48c6c8d444	0.10248236516129433
207	0x3fb27cefb7937e5b	0.07221887809600373
208	0xbfb1ce551e833c79	-0.06955463404595887
209	0xbfaf828fba9eac40	-0.06154297974656986
210	0xbfc77d685625d932	-0.18351463514745486
211	0xbfbc08630d6351cc	-0.10950297428946171
212	0xbfb99591111e0e0e	-0.09993845622926065
213	0xbfc0d5029db88390	-0.13150055600365507
214	0xbfaf13943b23bc72	-0.06069625112456202
215	0xbfb0a1317bc9cce9	-0.06495961448836209
216	0xbfb48d29932ef16b	-0.08027896731704735
217	0x3f9d8dd5d86b8e85	0.028861371359097738
218	0x3fad35792bc7675d	0.05704859408770233
219	0x3fbced819cdebd41	0.11299905853114912
220	0x3fa83f9528957763	0.04736009712608682
221	0x3fb25cdcfda004ba	0.07172948066728937
222	0x3f80813edec04b9a	0.00805901639254163
223	0xbf90d73ffe942a8f	-0.016446113503699563
224	0xbf9fc85b39eb9b66	-0.031037736330201147
225	0x3f978eb068127d32	0.023005253173889524
226	0x3fb19e3ef626fa85	0.06882089147164024
227	0x3fa12e0435c7ee01	0.03355420261865661
228	0xbf7daf0441fd5941	-0.007246986991807981
229	0xbf95b6b773e04c4a	-0.02120482105972269
230	0xbf7d14f16c66e6f7	-0.007100050983746212
231	0x3fbd0501004dcc2d	0.11335760362071375
232	0x3f9539e7a4a2cb1d	0.02072870199544773
233	0x3f4e540de2d1a6b0	0.0009255473902502667
234	0x3fa84a17204daf4b	0.047440264409344644
235	0xbf9c2fd6d0d55ae1	-0.027526241775684638
236	0xbfb4cd21a6fe956c	-0.08125505759251944
237	0xbfb66f7024a90d33	-0.08763790984180701
238	0xbfc0ab09254602f0	-0.13021959609979872
239	0xbfb394297d460a88	-0.07647952373921829
240	0xbfa1f72b3e86cd8a	-0.03508887422813263
241	0x3f8e79f1389dbe96	0.014881023922242147
242	0xbfbc6233061f1ece	-0.11087340259029618
243	0x3f94750c92172528	0.01997775689759354
244	0xbfa62a82cbe34698	-0.04329308260788628
245	0x3f626e436bd5db99	0.0022498432942330113
246	0x3fa166f6d3a9c4d5	0.033988679254329725
247	0x3fad12e7cd49c421	0.056784862336719984
248	0x3fc03cf5d22a3cc3	0.12686035882913957
249	0x3faad093ce37036b	0.05237256901046446
250	0x3fa568e88cced8b3	0.04181601256225189
251	0xbfa83e249b861c3e	-0.04734911344990465
252	0xbfb4bd62668b4af4	-0.08101477626341219
253	0x3f9e5682ddf3782d	0.029626889035050553
254	0xbfb56dfba78d2872	-0.08370945778475106
255	0xbfacfdefac8004c4	-0.05662487965310839
