nn_model_h1.npz (npz, 636774 bytes, 4 tensors)

b2 f8 [10]
000000 ba 56 bc 1c c7 bf d7 bf 40 15 c5 82 ed d1 ce bf
       -0.3710801869031958 -0.2407814873242078
000010 6c 4f 96 52 7d 4b c5 bf 73 58 22 7b e4 e7 d2 bf
       -0.16636625797820714 -0.29540359520741005
000020 62 18 64 3f 10 b3 bf 3f dc f1 f9 9c 8d b9 b8 bf
       0.12382604167587055 -0.09658131678037968
000030 02 f4 9b e4 3b ff b7 bf 91 50 fa 8a 5b 34 d7 bf
       -0.09373831111220457 -0.36257065364885316
000040 05 c0 57 a7 dc de f1 3f 9c 26 b4 40 b8 b0 d8 3f
       1.116909650500021 0.3857861167785843

b1 f8 [100]
000000 c3 92 16 90 28 ab a6 bf 7f f6 34 67 41 15 9b 3f
       -0.044274585331810744 0.026448270725487163
000010 44 0f b0 22 a3 44 ad bf af e1 71 28 e1 1b b0 bf
       -0.05716428564485779 -0.0629254077665624
000020 35 16 63 45 18 2c c1 bf cd 39 8d 4c f0 df b1 bf
       -0.13415816677131578 -0.06982328289925661
000030 18 d1 9e 28 0b 1e cf bf cb db 71 16 06 0a 85 bf
       -0.24310435756127258 -0.010273025093040197
000040 75 20 20 aa a7 ba cc 3f ca b4 c2 51 9e 8e 95 bf
       0.2244462567034621 -0.021051858654278978
000050 ab 51 dc e9 5a 40 b4 bf 9a 80 2a 58 6e cc d6 3f
       -0.07910698136794873 0.3562274800297104
000060 2f c1 32 1c 20 e2 92 3f 78 1d 65 f3 91 99 cb 3f
       0.018440725060544224 0.21562408813973
000070 3e 92 8c 62 27 fe ca 3f b5 0f d3 33 65 bf 73 3f
       0.21088115989654627 0.004821200677898864
000080 91 1f 77 12 c1 86 c8 bf e3 95 2c 19 85 b1 ab 3f
       -0.1916123714602205 0.054088744471566995
000090 34 ae 08 25 12 f7 a9 3f 7e 3d 53 3d bc eb aa 3f
       0.05071312620233606 0.05257976769064053
0000a0 33 47 f1 f6 78 ed d0 3f 13 a8 93 11 02 10 ce 3f
       0.26449417224386024 0.23486352785340667
0000b0 93 3d e4 ad 92 11 cd 3f c0 b0 75 50 ea 5a bb 3f
       0.2270987843589692 0.10685600723599276
0000c0 be 1d 58 2d ab da 92 3f 0c 40 87 7f fc fd ad 3f
       0.01841227974185044 0.058578386847898484
0000d0 7a 03 df 78 db f4 d9 3f 0f 7d f2 23 a8 8e b5 bf
       0.4055699043638509 -0.08420801999681181
0000e0 70 93 63 20 5b dd c2 bf e9 b1 f2 48 6c 12 c7 bf
       -0.14738024789326287 -0.18024972497859373
0000f0 ca b8 29 0e 0a c7 d5 3f 80 a5 1d 66 83 89 b3 3f
       0.3402733934698402 0.07631703608571705
000100 a6 82 ea b7 f1 3e 87 3f e3 1d 07 8c b5 a0 94 bf
       0.011350525307819947 -0.020144306823366775
000110 aa b6 14 ee d3 aa d5 3f cd 5a d5 db a5 5a d0 3f
       0.3385515046128186 0.25553270786387544
000120 fe cb 69 00 a4 ea cb 3f 74 66 0e 43 03 e1 9e bf
       0.21809816379717967 -0.030155230491436716
000130 d5 09 c2 c3 64 8d 90 bf 8f 77 58 49 03 43 b0 bf
       -0.016164373825185614 -0.0635225347582191
000140 88 6f e6 f3 f9 d8 c7 3f a9 38 e2 de 33 61 bc 3f
       0.186309093562951 0.11085819427009604
000150 14 1a 19 23 27 31 c7 bf 40 cb e2 d5 ca f1 c0 3f
       -0.18118752683422257 0.13237891620300424
000160 fd bd ed 57 42 98 b0 3f da c6 3a b4 e8 98 d1 3f
       0.06482329031654639 0.2749578247122436
000170 cc 9c 85 5a d7 de c3 3f 52 82 6a 4a 05 74 d9 3f
       0.15523807449355898 0.39770633952324375
000180 40 fd 3a f3 9a a7 b1 bf 93 99 0d f7 06 c2 c6 3f
       -0.06896370352022974 0.17779624045506334
000190 39 28 c5 bf e1 5b d0 3f 16 b2 b8 cb fc 5b da 3f
       0.255608021998913 0.4118644704310851
0001a0 9f 7b 5d 4b 73 3e b9 3f 61 3b 57 fa 15 f4 ab 3f
       0.09860916700334464 0.054596602257894096
0001b0 b5 e8 de f4 96 67 cf 3f e1 aa b1 f0 88 b8 a8 3f
       0.24534880596713085 0.04828288973006579
0001c0 44 0e 12 5b a3 f6 a3 3f 3c f5 7d 28 07 f6 cd 3f
       0.038991074435241774 0.23407067753934452
0001d0 99 6c 90 91 35 3e a5 3f 32 37 81 99 38 b4 cc 3f
       0.04149024392992224 0.22424991126393362
0001e0 68 ad 97 bb ab c0 95 bf c3 97 78 05 45 c7 d5 3f
       -0.02124279339288418 0.340287452071035
0001f0 07 1d ea 7c 63 6d b9 bf 18 28 b2 aa fc 7c d3 3f
       -0.09932538795156996 0.3045035998299013
000200 75 2b 4d c5 8a 2c 8d 3f 8e c3 e6 94 09 fa 89 3f
       0.01424511351219391 0.012683939797030221
000210 f0 3b 1b e7 df 5c b4 bf 5a eb af 58 c2 7b c1 3f
       -0.0795421542381829 0.13658933000973655
000220 cd e1 7d d1 58 41 c6 3f 8c d5 0e 31 dd 03 ab bf
       0.1738692305477926 -0.052763855207938
000230 6f d7 0c 24 f9 00 c4 3f 10 38 0e 31 08 b3 cf bf
       0.1562796999002631 -0.24765112300195868
000240 89 57 5e 45 5e eb ce 3f 0b f7 71 e2 d3 1e da 3f
       0.24155786883482858 0.4081315719011946
000250 ff be f2 33 2a 84 a9 bf ad 29 d8 59 f8 97 d3 3f
       -0.04983646282323483 0.306150520075472
000260 05 41 95 b8 bb 21 a6 3f 93 16 a6 34 88 77 c3 3f
       0.04322611454210982 0.1520853287767535
000270 06 2a a8 25 2f 1b 99 3f 8f 31 bc d5 72 8b be 3f
       0.02451776187266754 0.11931531637328006
000280 95 6d 09 bb d3 29 bf 3f 16 da fa 30 0b 0c d6 bf
       0.12173198047951524 -0.3444850900954476
000290 1a f6 52 3d 34 cc da 3f 08 65 b7 83 d8 1b cb bf
       0.4187136267536019 -0.21178728515113954
0002a0 56 48 00 dd 4e 53 a4 3f 4f 86 4d 19 ab 52 cb 3f
       0.03969809005515461 0.21346033797731187
0002b0 cc 26 50 1b e2 14 ae bf 11 dd 33 6d 2e fd c5 bf
       -0.058753076395147014 -0.17178898174436388
0002c0 04 12 42 5c f5 a7 90 3f bb b7 73 00 12 47 bb 3f
       0.016265710597979335 0.10655319701228809
0002d0 6c 17 d6 dc 1c b7 c8 3f 71 0d 01 e2 53 b4 b5 bf
       0.19308815749189578 -0.08478283183744907
0002e0 fb 88 84 84 ee 5a bd 3f a7 46 a1 3c cf 14 b5 3f
       0.11466875777526646 0.08234877805923678
0002f0 76 17 9d 49 78 73 ad bf 21 a6 3e 72 75 99 9a 3f
       -0.057521590219535776 0.02597602376741837
000300 88 db 79 19 e4 7a c6 bf 04 04 8b db 9b 1a dc 3f
       -0.17562533611245734 0.4391240734076407
000310 09 87 17 4d 1c ce c6 3f 5a 63 7b 84 b4 15 d0 3f
       0.17816499485257278 0.2513247770089514

w1 f8 [100, 784]
000000 6b b3 62 87 32 10 8c bf aa 35 d0 0f 2b 7e 7b 3f
       -0.013702769047392946 0.006712120256464097
000010 2c 34 b8 47 b7 a9 85 bf 46 32 57 9a 84 f5 60 3f
       -0.010577613712508059 0.002070197095895207
000020 09 a6 0b 18 bb 0c 9b bf a8 52 1a 9c 82 dc 68 3f
       -0.02641575178396319 0.0030348349544716165
000030 0f 8f 1f 6a b6 a0 90 bf 9e 83 80 cd de 7b 6f bf
       -0.016238069751024983 -0.003843245660406016
000040 24 8d 2d 06 5a 8d 91 bf 84 93 2c f8 88 e5 58 bf
       -0.01714077627856371 -0.001519569167336616
000050 ca 5d b9 6e ef 6b 7b bf fa 55 08 fe 56 c9 8f bf
       -0.006694731982484334 -0.01552074396844726
000060 5a d3 9d 9c a4 4d 42 3f 8b 31 39 75 a6 9b 8f 3f
       0.0005585721748802939 0.015433597996115342
000070 92 11 bd 6c e8 d5 94 3f 0b a7 3c b8 23 93 a1 bf
       0.020347243916391707 -0.034325710525378104
000080 c8 54 f7 14 28 f6 71 bf 66 a8 71 84 5b 84 8d bf
       -0.00438514382354533 -0.014412608126992587
000090 96 cd cf b5 e9 5a 75 bf 09 90 d9 0c 96 77 92 3f
       -0.005213654451824997 0.0180343098967484
0000a0 24 4b 7e 1f d1 0d 7f 3f c8 55 94 84 ae f7 7a bf
       0.007581536185073987 -0.0065838639359489595
0000b0 92 cd 13 c1 9c 4d 19 bf 42 40 67 f1 6e d1 87 bf
       -9.652394534836174e-05 -0.011629931203884895
0000c0 76 3c af ff 7d d4 9c 3f 57 13 2d 7e 8d e0 54 bf
       0.028154343348259357 -0.0012742406622276625
0000d0 81 29 3b 1a ac b5 91 bf 0f 19 17 9c 93 10 8e bf
       -0.01729458723165456 -0.014680054856296225
0000e0 42 74 96 fd 36 ac 95 3f 5b 55 05 74 1b 11 48 3f
       0.021164759853139488 0.0007344612168177876
0000f0 5f dd f6 88 f3 29 55 bf a0 0f 1d 84 17 c7 73 3f
       -0.0012917402526520722 0.004828540668146447
000100 ed d3 ec 12 6a 35 3d 3f 7c b6 75 14 00 fd 89 bf
       0.00044568862624610913 -0.012689591049560571
000110 4d 99 aa 55 cc c6 81 bf a7 17 51 75 a8 69 8c bf
       -0.008679958690959078 -0.013873401718352897
000120 49 6f c2 0f 1a 85 87 3f f3 dd 01 f9 f4 5a 86 3f
       0.011484340291921706 0.01091567406568481
000130 0a ec f5 fc 9b 2f 95 bf 32 d1 19 8c dd b6 55 3f
       -0.020689427675716167 0.0013253367946193914
000140 ad 01 03 2c c1 ef 9d 3f 8d 4e 42 9b e8 39 8a 3f
       0.029234903632415477 0.012805764425400734
000150 e3 70 35 1e e5 40 97 bf 37 78 08 30 2f 44 84 3f
       -0.022708492249294287 0.009895676282266048
000160 af e4 f8 f8 a6 61 a3 3f 67 4d 2b 35 5e 5e 70 bf
       0.03785440243923099 -0.003996246336743204
000170 c1 8f 4e 8c e0 b5 77 3f c5 f0 17 ce 85 0e 90 3f
       0.005788685933030225 0.01568039961237912
000180 ce 3c f3 7b b6 98 91 3f c9 41 40 c9 a5 df 81 bf
       0.01718411571056038 -0.008727355198090774
000190 44 aa f2 18 47 33 78 bf f1 ed 3b c5 b6 c1 96 bf
       -0.005908277248787789 -0.022223335064138486
0001a0 f2 ba 5c dc 02 99 93 3f 8d 46 05 39 6c da 52 3f
       0.019138378810732833 0.0011507088530219617
0001b0 4b e6 5c 1c fa ec a4 3f 05 d4 0e 78 ac d9 5f 3f
       0.040870490991846774 0.0019439872996660512
0001c0 0d 99 aa 15 53 ac 82 3f 89 02 5b 74 95 c6 90 3f
       0.009117745493608465 0.016382537104393555
0001d0 aa 5a 07 39 9e 45 93 3f 6b 3c 13 fb 7b d8 98 bf
       0.018820259314305567 -0.024263322066698494
0001e0 78 73 a4 23 05 e5 90 bf 1d 2c 7e c3 24 e9 70 bf
       -0.016498642254294066 -0.004128593070968936
0001f0 41 a1 52 38 29 6f 7f 3f 60 e6 00 2a 22 02 88 bf
       0.007674370780627549 -0.011722819239469107
000200 4e 43 3f 26 e7 97 87 bf fa 3a 19 0c 44 e4 83 3f
       -0.011520200590810294 0.009712726229876168
000210 24 1e 6f c1 9f ec 8a 3f af 0b 07 fd 05 39 83 3f
       0.013146637049330563 0.009386107239043399
000220 3d c3 16 34 e5 49 9c 3f 1f 2e 73 08 0c c9 7b bf
       0.02762563829827801 -0.006783530239043794
000230 80 18 73 75 4d ac 70 3f 04 01 b5 9f 2f 6f 9b bf
       0.0040705705388913715 -0.02679132854723411
000240 4a 46 c1 9f f0 5c 3f bf 18 55 f8 20 3c 26 8f 3f
       -0.00047856211290761964 0.01520964599243739
000250 2f 0b ca ba 31 57 72 bf 3c 57 df 6b a9 d1 8e bf
       -0.004477686172893055 -0.015048335651879456
000260 9c a1 91 05 36 f7 a3 bf 14 32 cb 69 37 eb 8f bf
       -0.038995445422929736 -0.015585358539646633
000270 ed 89 78 33 f3 35 96 3f 95 2b 47 b1 61 a1 8e bf
       0.02169017793324628 -0.014956248495669825
000280 a0 24 f3 27 9d 88 8a 3f ba 1d 91 2f a3 ad 9d bf
       0.012955882817907771 -0.02898268678498337
000290 ba ad 5d 95 75 53 93 bf db 86 b8 98 c7 81 52 3f
       -0.018873059503148083 0.001129574697991512
0002a0 fa 6c ae 82 90 a4 82 3f 48 c9 21 f0 3f 40 8c 3f
       0.009102944362715071 0.013794421687837968
0002b0 ee d2 d4 ee 1a 95 86 3f a1 fc 83 d0 ac 75 60 bf
       0.011026583112291512 -0.0020092368396259085
0002c0 09 cc 13 fa e1 d0 81 bf 11 cb d6 16 95 55 99 3f
       -0.008699193424467582 0.024740533370002874
0002d0 85 e0 ba 52 28 cc 35 3f b1 92 9a 0d 3c 44 65 bf
       0.00033260330631491197 -0.0025960133469474446
0002e0 c3 c5 7b cf a6 5d 88 bf 78 38 bd 5d 50 e5 78 3f
       -0.011897376257794861 0.006078065805764969
0002f0 ae 85 35 ca 09 b3 89 3f 27 68 54 c7 c7 2e a5 3f
       0.01254851959555733 0.041372531015625484
000300 c3 02 cf 73 d9 4f 8a 3f 1a d5 9f 3e 2f 5c a4 3f
       0.012847613188456624 0.03976581229646055
000310 fc 56 62 62 92 86 9a 3f ca 2e f2 b0 38 aa 60 3f
       0.0259039757298387 0.0020342929124746766
000320 e9 01 e4 46 87 22 8f 3f fd 41 ba 7d f3 44 a1 bf
       0.015202576495085789 -0.033729180429080664
000330 f2 58 1d 55 76 23 90 bf ca a5 99 3b 16 de a3 bf
       -0.015760277695641763 -0.03880376317540486
000340 01 b1 04 cc 1f 7c 6f 3f d7 bd b2 a4 49 2a 88 3f
       0.003843366721545505 0.011799407328310458
000350 55 45 b2 cb 57 e5 70 bf e6 f0 ca 6d a2 61 87 3f
       -0.004124968482885312 0.011416691756828756
000360 16 3a c1 d2 1d 52 62 3f ad 64 c9 23 9b 21 81 bf
       0.0022364218221249217 -0.008364879636405165
000370 05 90 c3 fb e5 cf 9c 3f f0 00 c2 50 81 f7 76 bf
       0.028136819354486437 -0.005607133043781895
000380 4b 4d bf 4b 22 6f 7b 3f 3c d8 5c 8a 30 3d 95 3f
       0.006697782486259139 0.02074123234270807
000390 c4 b9 95 73 46 c1 91 3f f5 d8 c1 67 5a f7 71 3f
       0.01733884888147387 0.004386284967145428
0003a0 1e 62 03 5c f1 83 8c bf 66 1e 1d 28 86 f0 86 3f
       -0.013923535938759331 0.011200950717138624
0003b0 8c 3a 4e d8 8a 14 8d bf 88 ab 4d a6 fb 32 82 3f
       -0.014199337698099578 0.00888630486743637
0003c0 da 77 21 72 78 01 8a 3f c7 05 ea 94 ce 68 71 3f
       0.012698117239946006 0.00425034233069383
0003d0 23 31 d3 e1 32 e6 9f 3f 0f 35 f5 47 9c d9 a0 3f
       0.031151576073896636 0.03291023615256893
0003e0 88 e8 43 22 6d 69 af 3f 10 cf 27 35 72 85 b8 3f
       0.06135121386792358 0.09578622625104694
0003f0 6b 4f 46 39 d8 42 aa 3f b9 99 ae b0 b6 40 b2 3f
       0.051291234008344976 0.07129995168234061
000400 69 a5 3a e4 de f3 8c 3f 8d 21 53 42 d8 b0 85 3f
       0.014137021389006592 0.010591210865087653
000410 e7 be fe 04 a3 db 8c 3f 22 65 fa 62 a8 cf 9e bf
       0.014090798940599792 -0.030089026490348954
000420 49 f6 f1 eb 01 3a a0 3f 1b e5 cb dc ec 19 9b bf
       0.03169256215276712 -0.026466084457728117
000430 a5 59 c4 55 d4 dd 93 3f 70 76 ce cb 58 7b 97 bf
       0.01940089963417226 -0.02293146842895627
000440 20 eb 33 e0 eb e4 b0 bf e6 e8 c2 73 5a af 9a 3f
       -0.06599306319905596 0.026059544864190175
000450 b2 0b c9 02 73 79 75 3f 4c 85 21 a8 f3 d2 a3 3f
       0.005242776166201434 0.03871880938892022
000460 59 e3 d0 94 2a 31 67 bf 30 85 12 84 aa 1b 90 bf
       -0.002831061522126904 -0.01573053771119709
000470 73 8b 9a 68 39 f8 a3 bf 88 7f 0e 58 db 56 a1 3f
       -0.03900317575359837 0.03386578988943173
000480 35 43 e6 c3 85 02 75 bf b4 56 14 35 98 6f 7b bf
       -0.005129358787954887 -0.006698221740654087
000490 98 85 60 64 c3 a7 82 bf 43 f7 6d a4 f7 74 80 bf
       -0.009109045506252397 -0.008035597520343557
0004a0 a8 5c 35 fb e1 fe b0 bf 2c b2 32 cc 39 e7 a0 bf
       -0.06638920195597342 -0.033014112640874366
0004b0 dd ff dd e9 80 6f 8a bf ac ba b0 18 52 bb 99 3f
       -0.012907988678989507 0.025128634221057197
0004c0 10 90 0e 2c e5 09 a7 3f 59 78 17 c7 14 ca b7 3f
       0.04499736941150456 0.09292726383816453
0004d0 73 c8 01 5a 63 e6 b2 3f 84 44 05 7b d1 21 b3 3f
       0.07382794330058733 0.07473477605278062
0004e0 be 37 da fb 82 ad a9 3f 59 6d 65 6f 78 58 86 3f
       0.05015191387529637 0.010910931491415242
0004f0 7a 86 aa 1b c5 2b 72 3f e2 70 d1 2d f5 36 a5 3f
       0.004436273530389218 0.041434919207604684
000500 a1 bb 23 2b 74 7f 95 3f 08 17 13 f9 50 86 62 3f
       0.020994010098487007 0.0022613126280671726
000510 10 a6 d7 df 63 d7 a4 bf 8a b8 ce dc 1c 50 b1 bf
       -0.040705796312817566 -0.06762867346580684
000520 24 79 e5 b7 4c b8 90 bf 7e c7 92 13 f7 f8 86 bf
       -0.016328047489303846 -0.01121705082400459
000530 bc 42 ce 46 eb 00 8f bf f6 6f 3c 21 a9 71 a0 3f
       -0.015138471697157534 0.032117162043704114
000540 12 c7 fd 91 6a 00 98 3f 17 91 2a 90 63 7a 66 3f
       0.02343908802089973 0.0027439064591182716
000550 d9 3a 97 fa 64 41 a1 3f d0 cb 2f a0 e5 2f 90 bf
       0.03370204504937186 -0.015807712461491097
000560 f2 f0 1f 0c 59 9e a6 3f 97 b1 53 74 d3 34 98 bf
       0.04417684815413904 -0.023639015173942814
000570 87 31 28 d6 c3 b4 84 bf fb 0f f6 a1 53 57 b1 bf
       -0.010110406849911836 -0.06773874954347996
000580 3d 28 0c 2e af c5 a7 bf 19 93 6c 33 a9 5d a0 bf
       -0.046430086489707346 -0.031964576270445196
000590 66 a1 e5 f7 f1 c8 80 bf 61 0a 39 81 43 44 a1 3f
       -0.008195772531238443 0.03372393562724053
0005a0 47 9f 82 28 b8 8d af 3f 6e 54 29 f4 8e 48 c2 3f
       0.06162810797223855 0.1428393070406488
0005b0 77 43 36 92 1f 67 bd 3f 20 e9 5a d9 d5 97 c2 3f
       0.11485478706005191 0.14525864708941416
0005c0 d1 f7 3d f4 13 20 b9 3f f1 bd 9d c6 c9 f5 a0 3f
       0.09814572060528738 0.033125215048922636
0005d0 2b 64 5c ef cd 24 a4 3f 0a ea ed ae bb 89 7e bf
       0.039343295544491085 -0.007455571306190576
0005e0 d3 09 52 52 2a ef 8d bf 2e 4d 7f 74 f2 fa 76 3f
       -0.01461632789346804 0.005610415544612208
0005f0 ca f3 1f f5 79 bc a0 bf 01 c5 65 61 aa a8 a7 bf
       -0.03268796078916798 -0.04620869101462156
000600 6e 8e 3a 6d 6c 27 98 bf ab eb 06 b8 c3 ae a0 bf
       -0.023587888876717526 -0.03258334752486943
000610 d4 32 cc 7d 60 98 88 bf 31 f1 74 86 69 e2 86 3f
       -0.012009385909118299 0.011174034515186367
000620 91 90 70 bf c6 95 3e bf f1 da c2 08 13 5b 6a 3f
       -0.0004666910385273749 0.0032172557604000997
000630 13 db d0 3f 73 d4 92 3f a4 8d 2d 7d 93 61 a0 bf
       0.01838855816842073 -0.031994446783552705
000640 97 aa fa d7 ce 35 98 bf 59 02 38 f3 42 45 63 bf
       -0.023642761165926087 -0.0023523624056454415
000650 10 65 87 23 c4 57 a7 bf 4d b6 40 7d 91 ab 9a bf
       -0.04559147771551342 -0.026045106191466428
000660 b6 0d 01 58 97 22 87 bf 24 a7 cd 1c 0b a4 60 bf
       -0.011296446202442616 -0.002031346992613774
000670 92 fe b2 f8 9f 7a a1 3f ec 50 4b 0b 31 64 a1 3f
       0.03413867865446919 0.033967526081740335
000680 98 71 36 b2 7b c8 a4 3f b3 6f 5c d6 25 63 a9 3f
       0.04059206533858911 0.04958456269943614
000690 6e 70 87 1e eb 14 b6 3f e3 f7 8c 36 a2 db b7 3f
       0.08625668998087274 0.0931950934582058
0006a0 1f b6 90 fc 94 b4 a5 3f 97 75 3e 83 57 6f 80 bf
       0.04239335616180661 -0.008024867718456714
0006b0 ff 9d 4f f6 ba 76 9e 3f 6e e3 2d 6c 17 9f 98 bf
       0.02974979523051324 -0.024044385888803026
0006c0 12 fc 3b 81 06 20 84 bf 45 35 5f 2d b3 e3 aa 3f
       -0.009826708620947176 0.052518462456286254
0006d0 b4 21 35 c7 5e 1f 94 bf 6a 58 21 04 a2 de aa bf
       -0.019650917919791858 -0.05247980404298931
0006e0 6e da 26 90 9e 44 a2 bf 6f ad 4a b5 91 23 8e 3f
       -0.03567977437653701 0.01471628031261815
0006f0 0e ca f4 3c bd 11 99 bf b1 5b 13 f6 11 34 87 3f
       -0.024481732221099554 0.01132978470051946
000700 2c bf 36 0f d5 e6 90 3f 84 7d c4 b2 ec 7c 90 bf
       0.016505555203990926 -0.01610154954061961
000710 48 f2 ce 62 8f ad 9a bf d2 82 72 ab 06 fb 90 3f
       -0.02605270424440878 0.016582588400185845
000720 96 9d 38 ba 05 26 84 3f 18 42 5b 94 8b 04 85 bf
       0.00983814692069877 -0.010262575592975984
000730 18 a2 fc 82 ba 4d 57 3f 22 cf 12 4d 3f 0b a5 bf
       0.0014223405268670771 -0.04110143485868735
000740 5f b1 ce 4f 47 f2 9b 3f 63 70 f4 1e 7c b7 74 3f
       0.02729140686612774 0.005057797286351559
000750 42 1f b7 a1 1c 13 a4 3f d4 58 8a ad d7 64 a7 bf
       0.03920831178726171 -0.045691242155201955
000760 59 2e 51 e1 6d 70 b6 bf c5 82 1e 8b a7 4e b5 bf
       -0.08765303374200907 -0.08323142191376139
000770 05 2c a3 aa 8a 24 a2 bf 06 f6 fe 7c 0f 6d 8b 3f
       -0.035435040788421225 0.013391610147546206
000780 df 05 eb 32 53 26 af 3f 7f 95 ae 98 73 7e b8 3f
       0.06083927151258783 0.0956794975050652
000790 a3 7d 55 e0 ee 22 bb 3f 7c 04 3e a2 c0 1a a1 3f
       0.10600178696539912 0.033407230191195375
0007a0 60 93 78 e6 b1 37 9d 3f 9e 7d 40 b4 ba e2 99 3f
       0.028532771770318432 0.025278966190055756
0007b0 1b 95 a9 c1 45 e8 7a bf e0 46 a6 ac 8b 04 73 bf
       -0.006569168554596129 -0.004643006899998275
0007c0 b3 98 23 7c ba 46 9d bf 9a c0 36 41 1a ee 56 3f
       -0.02859012015041946 0.001399541510959812
0007d0 84 69 2e 00 48 70 8b bf b1 c4 1e b5 0f 45 7a 3f
       -0.013397753243954431 0.006413518292832141
0007e0 c1 4e 59 f8 98 83 98 bf 48 d4 4c 0c c8 8c 9f bf
       -0.02393950477410445 -0.030810476065387143
0007f0 62 05 c4 65 58 8d 47 bf 11 1b 1b 68 bb c0 8c 3f
       -0.0007187539700056862 0.014039482225951557

w2 f8 [10, 100]
000000 ad 10 a5 91 2a 26 b1 3f c2 69 84 1e 10 c8 93 3f
       0.06698862129002477 0.019317867148041186
000010 5d 33 09 ad 79 64 96 bf bc 7a fa 9b 09 04 db 3f
       -0.021867657839084276 0.42212143165844984
000020 07 20 7d b7 22 84 af 3f 67 82 1d be 8a b5 b7 bf
       0.06155498971799039 -0.09261386052595243
000030 8d c4 27 5c e8 5e dc 3f ac 94 d3 d4 07 d7 da bf
       0.44329270362420276 -0.4193744257339158
000040 44 e2 af d0 9b 73 c5 bf 1a 44 a0 78 65 1e cb 3f
       -0.167590596101734 0.2118651236528713
000050 3f ad de 38 cd 68 c1 bf 4d 9c 50 63 de e4 d3 bf
       -0.13601079251143663 -0.3108440370437549
000060 8f 5c 1b 23 4a 1b d4 bf 73 c6 a1 d6 b7 53 aa bf
       -0.3141656248894344 -0.05141996855753641
000070 9d 57 bb f1 38 17 cb 3f 2d 73 70 b5 c0 44 d5 3f
       0.21164619258223363 0.3323213359706639
000080 8b 6e 4b 4b 9a 09 dc bf 19 1f 4d 3f 98 43 bc bf
       -0.43808610299104406 -0.11040641351166548
000090 09 ba 10 89 21 a0 dc bf 71 5a fe 38 60 44 c3 3f
       -0.44727362046515445 0.1505241659439949
0000a0 e5 09 fe 48 a4 42 af 3f 9a b4 55 9a 0a b8 c1 bf
       0.06105531111736066 -0.1384289983356311
0000b0 7d 28 eb f0 33 19 d1 3f 54 ad 9e 1d ca c2 db 3f
       0.2671632626267025 0.43376400845109697
0000c0 a4 46 3f 13 6a ff db bf f3 b8 fa 0b fb 11 a4 bf
       -0.4374642551384602 -0.039199681484534475
0000d0 56 f0 82 f9 5d 9c 90 bf eb 61 9e 92 e2 96 d8 bf
       -0.016221493104908134 -0.384209292585665
0000e0 18 cc 75 37 71 29 d5 bf c1 2d 63 d8 3a ca e0 3f
       -0.33065443435697395 0.5246862627331482
0000f0 9c a4 8a 01 c8 40 be bf 71 1d b2 07 34 aa bc 3f
       -0.1181759837878808 0.11197209537396248
000100 e6 a9 86 7a ee 59 c2 bf 08 1a ef c3 55 72 83 3f
       -0.14336949331966692 0.009495420495921017
000110 ec 04 35 fc 61 d9 ca 3f 1c 9b c9 b7 26 c7 c0 bf
       0.20975899519729724 -0.1310776135826125
000120 07 27 be 35 0d 10 da bf f7 6c 23 03 f4 43 a3 3f
       -0.40722971199339536 0.03762781656561203
000130 3a 2e e8 9a 63 a8 c3 bf b0 e5 81 41 07 dd db bf
       -0.15357632697883777 -0.4353654994698344
000140 5e ea d8 82 7e 95 e0 3f 47 56 69 a0 96 4d e2 bf
       0.518248801766571 -0.571971238425882
000150 cd 72 c7 50 b5 eb c7 bf 46 7a 35 8c 03 d3 d2 bf
       -0.18688074535648128 -0.29412926380419824
000160 87 21 8c 09 7a 69 a9 bf 8b 13 ee c9 69 40 b8 3f
       -0.04963284842057463 0.09473286800318996
000170 ba ba f4 51 ab 95 d3 3f e6 60 2f 6a 8f f0 c8 bf
       0.3060100841857253 -0.19484131512468322
000180 d1 d2 04 04 b9 fe c1 bf 18 13 2b ef b4 23 ba bf
       -0.14058602043373594 -0.10210734213894701
000190 df cd 3c a6 52 7b b5 bf 91 6a a2 8c b6 1f c3 bf
       -0.08391300734074701 -0.14940530650058695
0001a0 3d b9 fa d7 53 c1 b8 bf d8 ce 48 39 c7 87 d7 bf
       -0.09669994376119902 -0.36766224474125186
0001b0 80 5f d1 e9 87 42 b3 3f a7 1f a1 5e 95 df d2 bf
       0.07523393114513333 -0.29489645234252254
0001c0 fb e4 17 4f 77 65 d7 3f b4 05 23 ff e9 60 8a 3f
       0.365567996253574 0.012880161379487422
0001d0 7e 13 47 ab 6e ab b1 bf 2f 46 d8 a0 ab 8e 7d 3f
       -0.06902209931929623 0.007216139243170923
0001e0 13 f3 d8 2f 17 56 d1 3f 5e 56 62 16 a0 95 c9 3f
       0.27087955162623806 0.19987870305037608
0001f0 1b 5b 14 9c a6 bf cf 3f bc 48 72 98 25 f4 90 3f
       0.24803621884412838 0.01655634634932633
000200 54 dc d8 c0 82 e8 a0 bf 79 09 3e f3 06 46 c1 bf
       -0.033023916283519 -0.13494955899302477
000210 bf 62 f8 3d 30 5b d7 3f 02 af 2c 83 84 22 88 3f
       0.36494070102484594 0.011784587147836149
000220 db 17 d7 d2 17 24 ce bf 34 31 78 5a cc 78 dc bf
       -0.23547647280628223 -0.4448729403964251
000230 83 ac e7 2f 2e f9 e1 3f 31 f5 85 0f d5 09 c4 3f
       0.5616675315517486 0.1565500570103864
000240 8e 91 df 4c 51 2c be bf 28 a2 64 07 06 ff c0 bf
       -0.11786373259344016 -0.13278270112029245
000250 d2 38 a6 bd 42 6c d0 3f 6e 61 18 98 59 58 d7 3f
       0.25660770912589925 0.36476745465326743
000260 ce 8e bc 89 5b 92 d3 3f 75 a4 77 1c 09 6b bc bf
       0.30580795718036036 -0.11100823349956264
000270 a8 8c 6e e0 26 3c ab 3f 0a 57 93 fb b2 0e dd bf
       0.053193297287429886 -0.4540221649925661
000280 12 50 4b f4 d1 7d bd 3f 16 ac 19 cf 8d ea d9 3f
       0.11520111288274418 0.4049410364593212
000290 00 3b c9 0d 11 10 ab 3f 24 e4 8e f9 3d 26 c2 bf
       0.0528569535568888 -0.14179205594499067
0002a0 78 b3 1a 84 03 74 e1 3f 64 c0 20 5a 7c da c7 bf
       0.54541183282491 -0.18635515595224483
0002b0 86 75 3d e0 d3 36 cf bf 41 85 6a df 84 a9 bf bf
       -0.24386070679876698 -0.12368040518278624
0002c0 db ab 8d 2a 60 24 c3 bf ce a3 40 09 43 7c ca 3f
       -0.14954759671976955 0.2069171710184307
0002d0 d3 d3 8e 44 28 fd c7 bf 28 b5 07 94 20 6c ac 3f
       -0.18741324756197617 0.055512445516664066
0002e0 67 b5 8c dd 18 c3 aa bf 07 d6 55 b9 f6 04 a9 bf
       -0.05226972298110404 -0.048865995525300625
0002f0 2c 73 48 5a 36 0e a2 3f c9 ef bc ec d2 1f de bf
       0.035264681359171796 -0.4706923782248365
000300 27 a6 25 8b a4 33 d8 3f a0 bb 2b 16 90 cb 91 bf
       0.3781520232065269 -0.01737809310264604
000310 d5 e2 89 24 97 1f b4 bf 17 65 ec f8 c3 81 b2 bf
       -0.0786070312696084 -0.07229256465179322
000320 5f 64 a5 6f 78 58 ac 3f 9c a6 7b 63 f0 8c ca bf
       0.055362475994748854 -0.20742611749237916
000330 01 f8 df bd 52 f0 d2 3f 21 3e b5 da ab 10 93 bf
       0.29591816465824655 -0.018618283485294044
000340 87 ac 98 67 17 98 a3 bf 5b a2 2c c3 51 33 cc bf
       -0.03826974048237113 -0.22031614332196878
000350 41 21 63 4e 4d 07 b6 bf fa 5e ca 03 b1 6d b4 3f
       -0.08604891933203353 0.07979875891248503
000360 3f 2e 59 d9 e8 d9 bf 3f 83 3a a8 50 cc c8 b6 bf
       0.12441878610950939 -0.08900143593948866
000370 93 ba fc 6e 2d 0d ad 3f a7 f6 e8 57 3c 6d d0 bf
       0.05674116115402685 -0.2566672190185763
000380 9a 20 34 21 10 42 b5 bf e7 32 91 b5 bb 85 d2 3f
       -0.0830392914832622 0.2894124291531583
000390 67 d0 29 99 15 91 af 3f 0e 4e 0e c5 c0 94 d1 bf
       0.06165378088636047 -0.2747041630147756
0003a0 ae 6e fa 3a 31 ea d4 bf 98 93 df be 36 33 e6 3f
       -0.32679396400065286 0.6937516906733547
0003b0 fd ba cb be 5a e6 c2 bf ec 72 af e3 d3 1e c4 bf
       -0.14765486065103764 -0.15719078652809715
0003c0 01 d0 0d 2b 4a f2 d1 bf 6c 94 f6 5d 90 03 db 3f
       -0.28041319088447386 0.42209252525419205
0003d0 b1 ab f5 b5 2d 9b 70 3f 7f 27 25 4a a4 42 86 3f
       0.004054239804967817 0.010869296562890927
0003e0 25 aa d8 44 48 84 8f bf c6 93 a9 d7 99 55 b5 bf
       -0.015389027215026616 -0.08333741679378112
0003f0 90 f7 4f 64 fc 65 9c 3f 17 be 4f b9 22 b3 b7 3f
       0.027732795355397466 0.09257714294630436
000400 3b 24 e6 6c 7c 28 cd 3f 95 8f 1a 70 57 7a c5 bf
       0.22779803578694832 -0.16779606794181903
000410 79 a1 7b fb a9 88 d6 3f 9a cf 12 a0 fb ac c5 bf
       0.35209130820160045 -0.16934151950920012
000420 a5 de d7 0f df 7d 96 bf b1 4f a4 ca 96 bb 9d 3f
       -0.021964536039347355 0.02903590785815852
000430 61 1c dc a9 ae 32 55 bf e5 39 71 37 f0 01 d4 3f
       -0.001293821878279443 0.3126183072498903
000440 d7 49 ad f2 ea 3e c0 bf ab 07 ba 28 8d 63 87 bf
       -0.12692009782274624 -0.011420347981814979
000450 2e 17 e0 a9 d8 bb e0 3f 29 20 7b d0 82 e9 d2 bf
       0.5229304616811754 -0.29550237998455714
000460 c6 25 08 8b 31 c2 8c bf aa 6d 24 4b 6e ea d7 3f
       -0.014042269759573577 0.3736835225879199
000470 76 0b c6 0c 66 dc e5 3f f2 bb 63 25 f8 3e e3 3f
       0.6831541299328439 0.6014366846337664
000480 3a f1 52 a6 33 a2 e4 3f 58 bc 55 1f 9f 51 72 3f
       0.6448000191226477 0.004472371646769245
000490 79 fb a2 63 64 e3 ce bf 16 c6 55 45 2b 88 dd 3f
       -0.24131445756026063 0.4614360978222022
0004a0 a8 42 7d f3 44 ee e0 3f ac 9a 80 cf 5a cf e2 3f
       0.5290856128359183 0.5878118565350028
0004b0 d5 02 c9 84 6e a2 e3 3f e8 73 9d 59 26 2a b0 bf
       0.61357809004411 -0.0631431549822562
0004c0 03 53 0e 21 0e aa b9 bf 9d a0 fe d1 ee 51 be 3f
       -0.10025108630209094 0.11843769671270583
0004d0 11 4b eb 5c a8 29 94 bf 9b ce 87 05 0c f7 b3 bf
       -0.01969016139157548 -0.07798838744184382
0004e0 d9 62 81 cd 67 f7 c0 bf 68 ff cb 62 8c 34 d2 bf
       -0.13255021604961462 -0.28445729873782577
0004f0 46 ec 0c af 84 89 d9 3f 49 5c 4c 2c 17 d3 cf 3f
       0.39901845068715536 0.24862947142603023
000500 34 ad 51 6c a1 4c ac bf 85 56 af d8 ff 2d e1 bf
       -0.05527214476827638 -0.5368651611449456
000510 f9 ba c0 ee 41 c4 d6 bf b0 a9 a8 fa 02 d1 c5 bf
       -0.35572861018856333 -0.17044102896882185
000520 94 4d 39 11 60 94 e0 3f a5 bc 7c 65 f0 c2 bf bf
       0.5181122146990895 -0.12406828382221365
000530 46 b7 12 bd 40 00 c0 bf a3 4f 19 40 e5 e4 cd 3f
       -0.1250077174385586 0.2335478365881701
000540 3b e3 b3 7b eb c4 c0 bf d6 fb 8b da e4 d6 68 bf
       -0.13100951709909645 -0.0030321569250868303
000550 0f 47 01 39 10 57 a1 3f b8 c7 5d cf 63 50 e4 bf
       0.03386736579763127 -0.6348132181285484
000560 28 d7 37 b5 03 bd a1 bf 1a a7 d4 9e a6 14 93 3f
       -0.03464519106993996 0.018633464283232738
000570 c6 88 89 cc 0a fc 89 bf d8 8a f1 27 e8 32 c9 3f
       -0.012687763564091969 0.19686605406157898
000580 54 12 0d c0 49 78 93 3f 20 76 9e 4e bb 02 83 3f
       0.019013550135485183 0.009282553993951004
000590 2c db 90 31 35 1a a6 bf 5f 0a 8f c8 8f 77 d1 bf
       -0.04316869955112276 -0.2729224642354548
0005a0 f9 4c 6d ee 68 dc c7 bf 99 c8 a9 41 33 b3 db bf
       -0.18641387597981643 -0.4328125134699206
0005b0 00 b2 1f 7b a2 2d c0 bf 1f 5f c6 09 b5 07 ce 3f
       -0.126392660254524 0.23461020448007106
0005c0 cf b4 5e df 0e 61 92 bf b9 12 04 d9 db 7d e0 3f
       -0.01794837225286444 0.5153636206237798
0005d0 b3 33 50 2d 7d 8d d5 bf 86 b4 3c e4 21 1b b7 3f
       -0.33676080155492655 0.09025775739856287
0005e0 28 09 56 19 bc a9 a0 bf d9 e2 6e e9 44 bd ca bf
       -0.03254497346189772 -0.20890103719809508
0005f0 91 c0 d9 46 36 50 b9 3f 56 68 4c 52 02 a5 c6 bf
       0.09888018827200741 -0.1769106771324142
000600 92 2c 78 a0 c2 d5 b7 bf 58 0c d6 3f 82 f1 d0 bf
       -0.09310547273359962 -0.2647405265235583
000610 9c ff d5 d1 b5 b9 ca bf ae 19 91 5e 8d 21 d9 bf
       -0.2087924265470037 -0.3926728652480972
000620 62 dd e5 34 bb b9 58 3f 91 b9 f7 8c 3b 79 c3 bf
       0.001509125536896715 -0.15213722594439763
000630 08 30 20 27 52 fb c5 3f 91 2b 16 f6 91 a3 cc bf
       0.1717322054904573 -0.22374176517436387
000640 33 82 1b b3 a3 b8 d0 3f 88 4b ea 3f 5d 94 a0 3f
       0.2612694977852101 0.03238192944731738
000650 db ee 6a 85 18 dc ea bf d6 e0 79 05 68 99 a2 3f
       -0.8393671613516419 0.03632664744231
000660 2b d7 9f 1e cc cb c3 bf 00 8c 8f 79 62 32 d2 bf
       -0.15465690131503015 -0.28432523604550397
000670 ce b8 5e 00 b5 24 b3 bf 9b 79 e4 ea d3 0b c1 3f
       -0.0747788549331034 0.1331734558998051
000680 8a 88 0f 34 90 47 e0 bf 6d ff 17 f1 42 e3 89 3f
       -0.508735753708849 0.012640498144719204
000690 5b 7e 8f 13 28 28 b9 bf b8 e0 2a 7f 3f 06 d4 bf
       -0.09826899030257989 -0.31288134974193893
0006a0 69 eb 64 14 a6 3f a0 bf 36 e3 da bf 5d 27 a1 bf
       -0.03173560141518445 -0.033503465337565805
0006b0 ae 5e 1d 5a c3 08 e0 bf 3f c0 e5 32 c2 a4 bd 3f
       -0.5010697135976068 0.11579526655782589
0006c0 78 f8 8e 4f 00 f0 98 3f 92 d4 a3 d4 c7 3b c8 3f
       0.02435303197466296 0.1893243587761942
0006d0 d1 f1 52 24 99 27 97 bf 4b 75 c6 66 df 4d 99 3f
       -0.022611992685357244 0.02471112313070493
0006e0 ec 4d d2 84 14 1e be 3f 62 e4 26 32 e2 fd c6 bf
       0.11764648668968619 -0.1796229119188722
0006f0 4b 26 a3 1c 6e 5d b3 bf fc 09 3c 77 72 3d e0 3f
       -0.0756443805613795 0.5075008705901491
000700 a7 a2 8a c5 67 e9 de bf 94 7d b4 85 08 a5 bb bf
       -0.48299593249479716 -0.1079869581631015
000710 b4 34 cd e0 5b d4 a5 bf a3 fb 6a bf f9 dd c3 3f
       -0.042635794822311196 0.15521165701462988
000720 8f 2e fb c4 da 93 e8 3f 69 c2 d5 f7 18 1d d0 3f
       0.7680486533440262 0.2517759723914766
000730 cf 04 e0 cd f8 e8 e0 3f ed c5 9c 05 84 86 cb bf
       0.5284389515874411 -0.21504259370844583
000740 51 5e 19 e6 cf 7d bd bf c8 02 cc f7 03 35 8e 3f
       -0.11520099036840149 0.014749556541120326
000750 20 d6 71 b9 34 e7 c5 3f e9 14 7e 4c 06 41 e7 3f
       0.17111834578433704 0.7266875738138455
000760 39 8c e9 6c 3e e8 9d bf 0b 37 a7 57 93 51 9d bf
       -0.029206252477149006 -0.028631498551297912
000770 e9 a0 0c b4 ff c2 d0 bf b4 0f bf b8 35 da b2 bf
       -0.26190178473417675 -0.0736421180764058
000780 77 59 0a 0f 6b b9 e2 3f b5 b9 92 90 42 6b d0 bf
       0.5851340574034073 -0.2565466319892054
000790 09 51 3a b2 ac d1 b3 bf 72 a3 ed 3e ed 73 97 bf
       -0.07741813040985702 -0.022903162923657523
0007a0 29 c8 4f f5 83 01 d6 bf 50 2d 35 1f d2 e5 c2 3f
       -0.34384249645438786 0.14763857387365897
0007b0 d1 c8 62 7e f9 33 bb 3f 98 93 b9 e1 cf 6e e1 3f
       0.1062618192252416 0.5447768601121536
0007c0 a4 93 cc 86 15 49 b9 3f 81 06 d9 b3 a4 74 ce bf
       0.09877142468447048 -0.23793467313412367
0007d0 a2 7d 31 22 96 1c d3 bf 18 c9 e3 cb fa 8a e9 3f
       -0.2986197790068791 0.7982152921888739
0007e0 74 fc f3 1d fd 69 de 3f 4d f0 c3 96 10 6b e5 3f
       0.4752190392027338 0.6693194336544451
0007f0 e0 d2 9b 61 cf 45 d7 3f f0 08 45 04 f3 59 d3 3f
       0.3636358693322972 0.3023650685974095
